main/continuous_time_model/Burgers/parameters_checkpoints/Model_parameters.pth (torch, 15962 bytes, 15 tensors)

layers.0.weight f4 [20, 2]
0	0x3f0d0e83	0.5510027
1	0x3f1da28a	0.6157614
2	0x3e497ccc	0.19676512
3	0xbeb013d6	-0.34390134
4	0x3f1b4d81	0.60665137
5	0x3f052106	0.52003515
6	0xbf19fc4d	-0.60150605
7	0xbf09645f	-0.5366878
8	0x3ee426c6	0.44560832
9	0xbe1fedba	-0.15618029
10	0x3f2fd6ef	0.6868734
11	0xbdf03465	-0.117287435
12	0xbf78a849	-0.9713178
13	0xbf308dd4	-0.6896641
14	0xbcccb9b9	-0.024990903
15	0x3cea1add	0.028577263
16	0x3ee8e65d	0.45488253
17	0xbb9e9a5d	-0.004840179
18	0xbf792d09	-0.97334343
19	0x3f21354c	0.6297195
20	0xbe7c90a8	-0.24664557
21	0xbffb783b	-1.9646066
22	0x3eb0801b	0.34472737
23	0x3f68289b	0.9068696
24	0x3ea34aa4	0.31892884
25	0xbf082dd2	-0.53194916
26	0x3fac7b0f	1.3475055
27	0xbf291e89	-0.6606222
28	0x3f2f0c8b	0.68378514
29	0xbf0c206c	-0.5473697
30	0xbe68aeae	-0.22722885
31	0x3f74a9d7	0.95571655
32	0xbf3a99e5	-0.72891074
33	0xbe28d10a	-0.16485992
34	0xbf4c64f3	-0.79841536
35	0xbe80f00a	-0.25183135
36	0x3ebe9f71	0.3723102
37	0x3eea6b48	0.45784974
38	0x3f9459aa	1.1589863
39	0x3f124cc0	0.5714836

layers.0.bias f4 [20]
0	0xbee2f0f2	-0.44324452
1	0xbccbb90d	-0.024868513
2	0x3f48718b	0.7829825
3	0x3e499b11	0.1968806
4	0xbf2b1c0b	-0.66839665
5	0x3eca35b6	0.39494103
6	0x3f3341e0	0.7002239
7	0x3f324d39	0.6964908
8	0xbe233597	-0.15938412
9	0xbf000ec9	-0.5002256
10	0xbe582adb	-0.21110098
11	0x3f1ca493	0.6118862
12	0x3cd9fe58	0.026610538
13	0x3f348a36	0.70523393
14	0x3e85133c	0.25991237
15	0x3e8fb627	0.2806866
16	0x3e359443	0.17732339
17	0xbeeb2c95	-0.4593245
18	0x3f01c93e	0.50697696
19	0xbf264c82	-0.6496049

layers.1.weight f4 [20, 20]
0	0x3b0917a4	0.0020918632
1	0xbe853700	-0.26018524
2	0xbe5f823a	-0.21827021
3	0xbdee68a0	-0.116410494
4	0xbe92d279	-0.28676203
5	0xbb2f1e58	-0.0026720967
6	0xbe15e376	-0.1463755
7	0xbe4472f4	-0.19184476
8	0xbe93a883	-0.28839502
9	0x3cd2b18d	0.025719428
10	0xbe72ce21	-0.23711444
11	0xbeb2fb49	-0.3495734
12	0x3d97b2e3	0.07407167
13	0x3dae5b7e	0.085135445
14	0x3e5a2fb5	0.21307261
15	0xbdd62c1b	-0.10457631
16	0x3cfb32a0	0.030663788
17	0xbda2d229	-0.07950241
18	0xbe43ab02	-0.19108203
19	0xbe11b0d7	-0.14227615
20	0xbda0022a	-0.07812913
21	0xbe5093d2	-0.20368889
22	0x3beae3cd	0.0071682693
23	0x3e8e6ee0	0.27818966
24	0xbeac4f1e	-0.33654112
25	0x3dcc0698	0.09962195
26	0x3ef7c352	0.48391205
27	0x3e66c55a	0.22536221
28	0xbedfb0bb	-0.43689522
29	0xbe89b682	-0.26897055
30	0xbecbee85	-0.39830413
31	0xbcba65b4	-0.022753574
32	0xbe563863	-0.20919947
33	0x3e78eb3f	0.2430849
34	0x3ec194d5	0.37808862
35	0x3eca5a3f	0.39521977
36	0x3e3cb451	0.1842816
37	0xbda11840	-0.078659534
38	0x3e2daa39	0.16959466
39	0xbf42b19a	-0.7605225
40	0xbe2f45c2	-0.17116454
41	0xbe8265fe	-0.2546844
42	0x3dce0727	0.10059958
43	0x3ea4b8f9	0.32172373
44	0xbeb6a7f8	-0.35675025
45	0xbccf9783	-0.025340801
46	0x3f1d6009	0.61474663
47	0xbd33e3ac	-0.043918297
48	0xbe258cd0	-0.16166997
49	0xbe655058	-0.2239393
50	0x3de75012	0.11294569
51	0xbd6ee3fa	-0.058322884
52	0xbda3ff44	-0.080076724
53	0xbed5c1ae	-0.41749328
54	0x3e47574e	0.19466898
55	0xbd8aa979	-0.067706056
56	0x3dfec7ff	0.1244049
57	0x3e5691ee	0.20954105
58	0xbc8077b4	-0.015682079
59	0xbf00d1ad	-0.5031994
60	0x3db6dc2a	0.08928712
61	0xbdfdcfb8	-0.12393135
62	0xbd774810	-0.06037146
63	0x3e9ed507	0.31021902
64	0xbe16cb48	-0.14725983
65	0xbe9e5d79	-0.3093069
66	0x3ed80974	0.42194712
67	0xbba62185	-0.005069914
68	0x3e03f346	0.1288577
69	0xbe1d5c52	-0.15367249
70	0xbe9cf408	-0.3065493
71	0xbb9f9d3e	-0.0048710397
72	0xbdaa610f	-0.08319294
73	0x3db7127b	0.08939072
74	0xbdbaaea7	-0.091153435
75	0x3e6a9af6	0.22910675
76	0x3e015913	0.12631635
77	0x3d66bf00	0.056334496
78	0xbe8fd4f1	-0.2809215
79	0xbe86330b	-0.26210818
80	0xbed63aa4	-0.41841614
81	0x3ef5c011	0.47998098
82	0xbc11c026	-0.008895909
83	0xbdb32e95	-0.08749119
84	0xbe69c845	-0.22830303
85	0x3e2e0f93	0.16998129
86	0xbdeeda12	-0.11662687
87	0x3eee1486	0.46500033
88	0x3e1af6cd	0.1513321
89	0xbf330a2e	-0.6993741
90	0x3eeb4a34	0.4595505
91	0xbe6cd3a8	-0.23127615
92	0x3f0e7087	0.55640453
93	0x3f215a67	0.6302857
94	0x3ee92699	0.4553726
95	0xbe792c2c	-0.24333256
96	0xbece4935	-0.40290228
97	0xbe8bae51	-0.2728143
98	0x3ea0edc8	0.31431413
99	0x3eea6124	0.45777237
100	0xbea5097b	-0.32233796
101	0xbe8b2cd8	-0.2718265
102	0x3e4ce1c5	0.20007999
103	0x3c5b4d84	0.01338518
104	0x3d37ed7a	0.04490421
105	0xbe657cd0	-0.22410893
106	0x3ef863dc	0.48513687
107	0xbdde3d53	-0.108515404
108	0xbefa7d23	-0.48923597
109	0x3dda09cf	0.10646402
110	0xbe36c6f1	-0.17849328
111	0xbe3f0b98	-0.18656766
112	0xbea74cf6	-0.32675904
113	0xbf159f70	-0.5844641
114	0xbd8d54b2	-0.0690092
115	0x3c2c4776	0.0105150845
116	0x3ee2cc69	0.44296578
117	0x3dfc8b68	0.12331277
118	0xbe2a4d2d	-0.16631003
119	0xbf20991a	-0.62733614
120	0x3f4052b6	0.75126207
121	0xbf1d247c	-0.61383796
122	0x3a5882aa	0.00082592166
123	0xbcafac8d	-0.021444583
124	0xbe8cf866	-0.27533263
125	0xbed4caf3	-0.41561088
126	0xbe214011	-0.15747096
127	0xbe096844	-0.1341868
128	0xbeab4f94	-0.3345915
129	0x3f6be013	0.92138785
130	0xbf09e537	-0.5386538
131	0x3e54810a	0.2075235
132	0xbf7501d5	-0.9570592
133	0xbf2ce8c6	-0.67542684
134	0xbf347240	-0.7048683
135	0x3f0b3e45	0.5439189
136	0xbcecddeb	-0.028914412
137	0xbe07a43d	-0.13246246
138	0x3bf5aec8	0.007497642
139	0x3e4cc077	0.19995295
140	0x3eb34673	0.35014686
141	0x3de30b15	0.11086098
142	0xbddfb104	-0.10922435
143	0xbee93c0b	-0.45553622
144	0xbcd6263f	-0.026141284
145	0x3e524afd	0.20536418
146	0xbee69146	-0.4503271
147	0xbe31f846	-0.17379865
148	0xbb18aeb3	-0.0023297488
149	0x3e555667	0.20833741
150	0xbe501105	-0.20318992
151	0x3eb9f05d	0.36316195
152	0x3d2ea748	0.04264
153	0xbd700443	-0.058597814
154	0x3e162f38	0.1466645
155	0x3e2d7e30	0.16942668
156	0xbdd9f0e7	-0.106416516
157	0xbe2ebf99	-0.17065276
158	0x3d96b2b1	0.073583014
159	0x3eb99cf7	0.36252567
160	0x3ec044ef	0.37552592
161	0xbeaa8993	-0.33308086
162	0x3e27927e	0.16364476
163	0xbe7c1aba	-0.2461957
164	0x3d627baa	0.055293716
165	0xbd8f8088	-0.07006937
166	0xbe4b6d6e	-0.19865963
167	0x3d334fdf	0.043777343
168	0xbe196a37	-0.14981924
169	0x3d753da0	0.059873223
170	0xbed4602e	-0.4147963
171	0xbe31ad85	-0.17351349
172	0xbe9bac6f	-0.30404994
173	0x3def9ece	0.117002115
174	0x38fb117a	0.00011971868
175	0x3e5a5096	0.21319804
176	0xbcdce652	-0.026965294
177	0xbe26d855	-0.16293462
178	0x3ea8cf30	0.32970572
179	0x3eb600e8	0.35547566
180	0x3da5249e	0.08063625
181	0xbe6b362b	-0.22969882
182	0x3e20e386	0.15711793
183	0xbd64d23f	-0.05586457
184	0xbd8cf3b2	-0.06882419
185	0xbdfeca7e	-0.12440966
186	0x3e13b4b2	0.14424399
187	0xbcd04118	-0.025421664
188	0x3e4fb14c	0.20282477
189	0x3dda6517	0.106638126
190	0xbe64f715	-0.2235988
191	0x3e491542	0.19637015
192	0xbe892d51	-0.26792386
193	0x3b87a49d	0.0041394965
194	0xbda10d3d	-0.07863853
195	0x3d2c3496	0.042042337
196	0x3c49707f	0.012294888
197	0xbc4950e1	-0.012287349
198	0xbd2d7c25	-0.04235472
199	0xbe4791cc	-0.19489211
200	0x3e1d38a8	0.15353644
201	0xbd713052	-0.058883972
202	0xbf1008f8	-0.56263685
203	0xbdcda19e	-0.10040592
204	0x3de0ae67	0.109707646
205	0xbebba386	-0.36648196
206	0xbe30c2fc	-0.1726188
207	0xbe4a01fa	-0.19727316
208	0xbe8a92c2	-0.27065092
209	0x3f00233c	0.50053763
210	0xbe8ee9c8	-0.27912736
211	0xbeda8195	-0.42676988
212	0xbf05a94e	-0.52211463
213	0xbe8fb656	-0.280688
214	0xbe050511	-0.12990214
215	0x3eb377af	0.3505225
216	0x3e571dfc	0.21007532
217	0x3e5ccf41	0.21563436
218	0xbea1b0ed	-0.31580296
219	0xbd909867	-0.070603184
220	0x3ee357ed	0.4440302
221	0x3e6f7e7d	0.23388095
222	0x3e862141	0.26197246
223	0xbde3a4d6	-0.11115424
224	0x3d2b4c33	0.041820716
225	0x3e434177	0.19067942
226	0xbe8627b5	-0.2620217
227	0x3c18cdbf	0.009326397
228	0x3bc9fffd	0.0061645494
229	0xbd3b64b2	-0.045750327
230	0xbe1a44ab	-0.15065257
231	0xbe43a966	-0.19107589
232	0x3dd39b22	0.103323236
233	0x3e5ebecd	0.21752472
234	0x3e60652a	0.21913591
235	0xbe1b3b66	-0.15159377
236	0xbed0cee7	-0.40782854
237	0xbe8240cd	-0.25440064
238	0x3e4f852c	0.20265645
239	0x3ec57bb4	0.3857094
240	0xbdc81344	-0.097692996
241	0xbe1330e3	-0.14374118
242	0x3e0da803	0.13833623
243	0x3eeb64f7	0.45975468
244	0xbe866b19	-0.26253584
245	0xbdf2bd31	-0.11852492
246	0x3f0c8a31	0.54898363
247	0x3ea59f2a	0.32347995
248	0xbe0128a9	-0.12613167
249	0x3c9b6a6d	0.018971646
250	0x3e4952ae	0.19660446
251	0xbe822caa	-0.254247
252	0x3d25049a	0.04028759
253	0xbe85cf1b	-0.2613457
254	0x3de2bdf8	0.1107139
255	0xbe27c421	-0.16383411

layers.1.bias f4 [20]
0	0x3dd4ed17	0.10396784
1	0x3e7a5d8d	0.2444975
2	0x3e9873b8	0.29775786
3	0xbe270cc2	-0.1631346
4	0x3ec423f4	0.3830868
5	0x3d36d4ae	0.04463642
6	0xbda9739b	-0.08274003
7	0xbe4425f4	-0.19155103
8	0xbe6fb5d0	-0.234092
9	0xbe905b6b	-0.28194746
10	0x3aa8199b	0.0012825014
11	0xbe796b46	-0.24357328
12	0x3e33b6b2	0.17550161
13	0x3e437d02	0.19090655
14	0xbc3ff3dc	-0.011715855
15	0xbd9d0b5f	-0.076681845
16	0xbd4cd5dc	-0.05000864
17	0x3dbda68a	0.092602804
18	0x3ddc9b34	0.1077179
19	0xbd73d470	-0.059528768

layers.2.weight f4 [20, 20]
0	0x3bc67fff	0.006057739
1	0xbc28c924	-0.010301862
2	0xbe1738b4	-0.14767724
3	0xbdf8dbcb	-0.12151297
4	0x3ea209bc	0.31648052
5	0x3d0530d2	0.03251726
6	0xbe1a9f9c	-0.15099949
7	0xbdc6bb7b	-0.09703728
8	0xbded8a3b	-0.11598631
9	0xbd03db77	-0.03219172
10	0xbec059f2	-0.37568623
11	0x3b9bffec	0.004760733
12	0xbe0cf504	-0.13765341
13	0xbe532527	-0.20619641
14	0xbccb9059	-0.024849104
15	0xbe0df7e8	-0.138641
16	0x3e1edf1b	0.15514795
17	0x3e007f6d	0.12548609
18	0x3de4d37e	0.111731514
19	0xbd09fa35	-0.03368588
20	0xbe8b3955	-0.27192178
21	0x3f359b46	0.70940053
22	0x3f0b6e55	0.5446523
23	0xbf8673fe	-1.0504148
24	0xbf3c7608	-0.736176
25	0xbd71a9a1	-0.05899966
26	0xbdcb940a	-0.099403456
27	0xbf102f7e	-0.5632247
28	0xbf0a5b14	-0.54045224
29	0x3c9681cc	0.018372439
30	0xbe768df4	-0.24077588
31	0xbda9ae96	-0.08285253
32	0x3f3a243c	0.7271154
33	0x3d5fac74	0.054607823
34	0xbe9ac1b6	-0.30225915
35	0xbe3e0a79	-0.18558683
36	0xbebda536	-0.37040108
37	0x3e39eed5	0.18157513
38	0x3d7debbb	0.06199239
39	0xbe83d6be	-0.25749773
40	0xbdea31f4	-0.11435309
41	0xbec237c8	-0.37933183
42	0xbeae55aa	-0.34049731
43	0x3d9af04c	0.07565364
44	0x3ee39c71	0.44455293
45	0xbf1ce5fc	-0.6128843
46	0xbed8a070	-0.42309904
47	0x3f025f05	0.5092624
48	0x3e08aeb5	0.13347895
49	0xbe905dcb	-0.28196558
50	0xbdff652b	-0.12470468
51	0x3ef619dc	0.48066604
52	0xbef4249d	-0.47684184
53	0xbe3a5ee2	-0.18200257
54	0x3f1fef28	0.624743
55	0x3ee3441d	0.44387904
56	0x3e7b29a0	0.24527597
57	0x3d071a24	0.032983914
58	0x3f36d30a	0.7141577
59	0x3e72dbfc	0.2371673
60	0x3e161201	0.14655305
61	0xbd9b7fd6	-0.07592742
62	0x3b6bc847	0.003597753
63	0xbe7a9af6	-0.24473175
64	0xbdb9937a	-0.09061332
65	0x3e2a06b9	0.16604127
66	0x3e6be9df	0.23038433
67	0xbda5c14e	-0.080935106
68	0xbd90ab38	-0.070639074
69	0xbddc1bd1	-0.10747493
70	0x3dbab7de	0.09117101
71	0xbc94d9bb	-0.018170228
72	0x3dfb647a	0.12275024
73	0x3de500db	0.11181804
74	0x3da851ef	0.082187526
75	0xbce7ebfa	-0.028310765
76	0x3e70a806	0.23501596
77	0x3dd885bb	0.10572382
78	0xbe1c3f91	-0.15258624
79	0x3c6fc3e8	0.01463411
80	0xbe408997	-0.18802486
81	0xbec3d4c0	-0.38248253
82	0xbec4bdba	-0.38426
83	0xbe9d6937	-0.30744335
84	0x3efe9251	0.49721006
85	0xbeaff6cc	-0.3436798
86	0xbea331ea	-0.3187402
87	0x3e8e38d5	0.27777734
88	0x3e717637	0.23580252
89	0xbed66e14	-0.41880858
90	0xbebec773	-0.37261543
91	0x3ea2fbb1	0.3183265
92	0xbf303173	-0.68825454
93	0xbe59ce29	-0.2127005
94	0x3f43b06c	0.76441073
95	0x3ee6e7c4	0.45098698
96	0x3ed35047	0.41272184
97	0xbd84e966	-0.0648983
98	0x3ef577f3	0.47943076
99	0x3e423625	0.18965967
100	0xbd6cc163	-0.057801615
101	0xbe624f5b	-0.22100584
102	0xbc7813e4	-0.015141461
103	0xbf0145dd	-0.5049723
104	0x3f09eb98	0.5387511
105	0xbd1c85fc	-0.038213715
106	0xbf246818	-0.64221334
107	0xbe648134	-0.22314912
108	0xbe89f9b3	-0.26948318
109	0xbea78082	-0.3271523
110	0xbe9dd214	-0.3082434
111	0x3e831d52	0.25608307
112	0xbe94daf4	-0.29073298
113	0xbe97344f	-0.29532096
114	0xbe0e74a6	-0.13911685
115	0x3ed5b971	0.41743043
116	0x3e867115	0.2625815
117	0x3ecf6e78	0.40513968
118	0x3e282612	0.16420773
119	0x3e11b00a	0.1422731
120	0xbdf9649d	-0.121773936
121	0xbe0d1648	-0.13778031
122	0xbeac284e	-0.336245
123	0x3d55f04d	0.05223112
124	0xbeecb912	-0.46234947
125	0x3e13c19e	0.14429328
126	0x3f133bc3	0.57513064
127	0xbde51a5e	-0.1118667
128	0xbdd8846e	-0.10572134
129	0x3e918665	0.28422847
130	0x3f213c93	0.62983054
131	0x3d7d41fd	0.06183051
132	0x3d355194	0.044267252
133	0x3e816ec8	0.25279832
134	0xbd1ff7cb	-0.039054673
135	0x3d586d10	0.052838385
136	0xbdb4b359	-0.0882327
137	0xbea0ac6b	-0.31381544
138	0xbe2e755c	-0.17036957
139	0x3e08bd95	0.1335357
140	0xbeacf25e	-0.3377866
141	0xbb850ca6	-0.0040603457
142	0x3ea82b8a	0.32845718
143	0x3e284e74	0.16436177
144	0xbe892327	-0.26784632
145	0xbc417a71	-0.011808977
146	0xbece3332	-0.40273434
147	0x3c427442	0.011868538
148	0xbe900fd3	-0.28137073
149	0x3df502e1	0.1196344
150	0xbe9416ee	-0.28923744
151	0xbe08588b	-0.13315026
152	0xbc493ed4	-0.012283046
153	0xbe668bb2	-0.22514227
154	0xbe58ac00	-0.21159363
155	0x3e2ebefb	0.17065041
156	0xbe2ffc83	-0.1718617
157	0x3e86f5d0	0.26359415
158	0xbd85723d	-0.0651593
159	0xbd98a090	-0.074525
160	0xbe9b7997	-0.30366203
161	0xbd85aa3d	-0.06526611
162	0xbec36102	-0.3815995
163	0xbe4eca09	-0.20194258
164	0x3e80e72f	0.2517638
165	0xbe9e3a18	-0.30903697
166	0x3e5054ad	0.20344801
167	0x3d844c89	0.064599104
168	0x3e1bf311	0.15229441
169	0x3d0223c9	0.03177241
170	0xbce90376	-0.028444033
171	0x3e57d818	0.21078527
172	0xbf230cac	-0.6369121
173	0xbd29b452	-0.041431732
174	0x3f0fa53e	0.56111515
175	0x3eb1ff72	0.34765202
176	0x3e543c55	0.2072614
177	0x3e819aab	0.25313315
178	0x3db2732a	0.08713372
179	0x3da59d1c	0.08086607
180	0x3e8f1fc2	0.27953917
181	0x3ebb9603	0.36637887
182	0x3df85fed	0.121276714
183	0x3ef012ed	0.4688944
184	0xbef49fb0	-0.47778082
185	0x3eaec4ac	0.34134424
186	0x3f652032	0.8950225
187	0xbeccb76e	-0.39983696
188	0xbe3282e6	-0.17432746
189	0x3f24c633	0.6436493
190	0x3f22f10c	0.6364906
191	0xbec9e67a	-0.39433652
192	0x3e7290d8	0.23688066
193	0x3cbe757c	0.02324938
194	0xbdd11425	-0.102089204
195	0xbf27f1a4	-0.6560309
196	0xbe130da5	-0.14360674
197	0xbf0a4984	-0.54018426
198	0xbf1097e5	-0.5648177
199	0xbef3573b	-0.4752749
200	0xbed3e7cb	-0.41387782
201	0xbdd10501	-0.102060325
202	0xbe41817c	-0.1889705
203	0xbdf8d33a	-0.12149663
204	0xbe442274	-0.19153768
205	0x3e115371	0.14191987
206	0x3e7cddc0	0.24693966
207	0x3ea185ca	0.31547385
208	0x3d63f12b	0.055649918
209	0x3e112d40	0.14177418
210	0xbe08800f	-0.133301
211	0xbe2e281c	-0.17007488
212	0xbe96938d	-0.29409447
213	0xbe3bb2c8	-0.18329918
214	0x3e1c5be9	0.15269436
215	0xbd41ce47	-0.047315862
216	0xbe3dabf4	-0.18522626
217	0x3e902c99	0.28159025
218	0x3dbbed8f	0.0917617
219	0xbe5f0e7b	-0.21782868
220	0xbed7460a	-0.42045623
221	0xbe6589fc	-0.22415918
222	0xbdc120c4	-0.09430078
223	0xbe1887bf	-0.14895533
224	0x3e67487a	0.22586241
225	0x3b8962b5	0.004192675
226	0xbe119273	-0.14216022
227	0xbe5b6dc3	-0.2142859
228	0xbe652a06	-0.22379312
229	0x3db23e5d	0.08703301
230	0xbe3d8cd1	-0.18510748
231	0xbd27c91a	-0.04096327
232	0x3e05feed	0.13085528
233	0xbe22e864	-0.15908962
234	0xbe9020ca	-0.28150016
235	0x3e88d9a3	0.26728544
236	0x3e204716	0.15652117
237	0xbd8f5474	-0.0699853
238	0x3dc90399	0.09815139
239	0x3cef8777	0.0292394
240	0xbe20af7c	-0.15691942
241	0xbe452811	-0.19253565
242	0xbe2e320a	-0.17011276
243	0xbf0f1c10	-0.55902195
244	0x3ee8e37d	0.4548606
245	0xbed4e093	-0.41577587
246	0xbee6a568	-0.4504807
247	0x3e3935cc	0.18086928
248	0xbddda60c	-0.108226866
249	0xbe481367	-0.19538651
250	0xbe0a657f	-0.1351528
251	0x3ecab7d7	0.39593384
252	0xbf02f845	-0.5116008
253	0xbd05ad86	-0.032636188
254	0x3e65f064	0.22454983
255	0x3edb0dcc	0.42783964

layers.2.bias f4 [20]
0	0xbe5acd83	-0.21367459
1	0x3e506b64	0.20353466
2	0x3ba50acb	0.005036687
3	0xbdc8b999	-0.09801025
4	0xbe2a25f3	-0.16616039
5	0xbdee7a01	-0.11644364
6	0xbdafd083	-0.08584692
7	0xbdcbfe23	-0.09960582
8	0xbe423c01	-0.18968202
9	0x3c1d13f6	0.009587279
10	0x3dca5128	0.098787606
11	0xbd991be3	-0.07476022
12	0x3dff0448	0.124519885
13	0x3d4c0c5e	0.04981648
14	0x3e04efef	0.12982152
15	0x3d804130	0.062624335
16	0xbe738828	-0.23782408
17	0x3e0e36f9	0.13888158
18	0x3dad5374	0.08463183
19	0xbda4a10d	-0.080385305

layers.3.weight f4 [20, 20]
0	0x3e30c179	0.17261304
1	0xbea6e264	-0.32594597
2	0xbd112989	-0.03544
3	0xbdcbe1b7	-0.09955161
4	0x3e010e2c	0.12603062
5	0xbe102432	-0.14076307
6	0xbf0a4d4c	-0.54024196
7	0x3e2437e6	0.16036949
8	0x3e1722bb	0.14759342
9	0xbd70532d	-0.058673073
10	0xbd068b2b	-0.032847565
11	0x3e9d1f69	0.30688027
12	0xbd8966e1	-0.06709076
13	0x3d7bdcdc	0.061489925
14	0x3d2d9f2b	0.042388123
15	0x3ae49b10	0.0017441232
16	0xbde45798	-0.1114952
17	0x3e7ca933	0.2467392
18	0xbd243325	-0.040087838
19	0x3daa3550	0.0831095
20	0x3e2cb99f	0.16867684
21	0x3d59d6e4	0.05318345
22	0xbd00276d	-0.0312876
23	0x3d43b13c	0.047776446
24	0x3d927f7f	0.07153224
25	0x3cdb906a	0.02680226
26	0xbdf99816	-0.12187211
27	0x3e913afb	0.2836531
28	0xbe44a09b	-0.19201891
29	0x3d1bb39a	0.03801308
30	0x3e9fbeb5	0.31200185
31	0xbd1fd842	-0.0390246
32	0x3db60ffa	0.08889766
33	0xbd637d01	-0.055539135
34	0xbd83c5bd	-0.064342
35	0xbeacc96b	-0.3374742
36	0x3d83a62b	0.064281784
37	0xbe62688a	-0.22110191
38	0x3d9ba8a9	0.07600529
39	0x3e97f690	0.296803
40	0x3ee7cca4	0.45273316
41	0xbf2e1a8e	-0.6800927
42	0x3fa3af2a	1.2787831
43	0xbe23f461	-0.16011192
44	0x3fac8c90	1.3480396
45	0x3e940822	0.28912455
46	0xbf1b496b	-0.606589
47	0xbdfe77e1	-0.12425209
48	0x3f098687	0.537209
49	0xbf3a11e8	-0.7268357
50	0xbee22ad3	-0.44173297
51	0x3ebe938c	0.37221944
52	0x3fa21590	1.266283
53	0xbf29d4ae	-0.6634015
54	0x3eea417b	0.45753083
55	0x3d7bd4c6	0.061482213
56	0x3c439372	0.011937009
57	0x3f086de2	0.5329267
58	0xbdcc4afe	-0.09975241
59	0x3e2e4cea	0.17021528
60	0x3d7a38cf	0.061089333
61	0xbe247dec	-0.1606366
62	0xbd4e8855	-0.050422985
63	0xbd3ea4ec	-0.046544
64	0xbdfe3b52	-0.12413658
65	0x3e08f5dd	0.1337504
66	0x3d9f99d2	0.07793011
67	0xbc71c3bf	-0.014756142
68	0x3e0e82b8	0.13917053
69	0x3e18639d	0.1488175
70	0xbeb8f269	-0.36122444
71	0xbe800287	-0.25001928
72	0xbe43adb5	-0.19109233
73	0xbe4cb604	-0.19991308
74	0xbd2a204a	-0.0415347
75	0xbc8046df	-0.015658794
76	0xbe314f24	-0.17315346
77	0xbd8c58d3	-0.068528794
78	0xbe4b70b7	-0.19867216
79	0xbe36b63c	-0.17842954
80	0xbe3c940a	-0.18415847
81	0x3ef2c7d4	0.47418082
82	0xbbdaf531	-0.006682061
83	0xbe56ee36	-0.20989308
84	0xbea755c9	-0.32682636
85	0x3e78347e	0.24238774
86	0x3e61cad2	0.22050026
87	0x3ed448f4	0.4146191
88	0xbe6ac0dd	-0.22925134
89	0x3d04bddf	0.032407638
90	0xbe59c362	-0.21265939
91	0x3e14670e	0.14492437
92	0x3e6d1a04	0.23154455
93	0xbd7aef0b	-0.061263125
94	0x3e90b6e7	0.28264543
95	0x3f1f84a2	0.62311757
96	0x3d79f555	0.061024982
97	0xbe36c14b	-0.17847173
98	0x3ebc059c	0.3672303
99	0xbd9253c2	-0.07144882
100	0xbe74e6fe	-0.23916242
101	0x3dee9c9f	0.11650967
102	0x3e0cbdf5	0.13744338
103	0x3d00518b	0.031327765
104	0x3aca0f97	0.0015416023
105	0x3e3e9db2	0.18614843
106	0x3d518705	0.051154155
107	0xbeca5dc2	-0.39524657
108	0xbdffb9a7	-0.12486582
109	0x3e315f9c	0.17321628
110	0xbe92951b	-0.28629383
111	0xbe4178f0	-0.1889379
112	0x3e5f04ef	0.21779226
113	0x3e03a33f	0.12855242
114	0x3e20d24c	0.15705222
115	0x3e8412b7	0.25795528
116	0xbe80a752	-0.25127655
117	0x3e0e720f	0.13910697
118	0xbdc9a698	-0.09846228
119	0xbed02d4a	-0.40659553
120	0x3df7ec50	0.1210562
121	0x3e783ace	0.24241182
122	0x3d403d79	0.046933625
123	0x3cf42e0b	0.029807111
124	0x3dcdf226	0.10055952
125	0xbe87d673	-0.265308
126	0x3e3d518c	0.18488139
127	0xbe14d860	-0.14535666
128	0x3e7a5ead	0.24450178
129	0x3e89558c	0.2682308
130	0xbd0d4103	-0.034485828
131	0xbd0104b2	-0.03149862
132	0x3e27c81a	0.16384926
133	0xbdf068f8	-0.11738771
134	0xbcb18591	-0.021670135
135	0x3cf7d0e1	0.030250968
136	0xbe4ffce0	-0.20311308
137	0x3c908643	0.017642146
138	0xbe7e0212	-0.24805477
139	0xbd9bf77f	-0.076155655
140	0xbd553f1f	-0.05206215
141	0xbbb4ec07	-0.0055213007
142	0xbe46bb06	-0.19407281
143	0x3e3d8f06	0.1851159
144	0xbe635ad0	-0.22202611
145	0xbd32544a	-0.043537416
146	0x3eca7981	0.39545825
147	0xbdcbcfc8	-0.099517405
148	0xbe2d906a	-0.16949621
149	0x3e9304b8	0.28714538
150	0x3e21ae5e	0.15789172
151	0xbdf6414d	-0.12024174
152	0xbe1ca571	-0.15297486
153	0x3e24220b	0.16028611
154	0x3d94151e	0.0723059
155	0x3d85e96c	0.06538662
156	0xbd88c850	-0.066788316
157	0xbe81dd5e	-0.25364202
158	0xbe2f3b64	-0.171125
159	0xbd5062e6	-0.050875567
160	0xbc7b4988	-0.015337355
161	0x3ef41704	0.4767381
162	0xbca75664	-0.020426936
163	0xbe370115	-0.17871507
164	0xbe94da25	-0.2907268
165	0xbdbebeed	-0.0931376
166	0xbdd9b350	-0.10629904
167	0xbd959b65	-0.0730503
168	0x3dc9ac2c	0.09847292
169	0xbd3ad116	-0.045609556
170	0xbed4228d	-0.4143261
171	0x3d48dfd1	0.049041573
172	0xbbb67a43	-0.005568774
173	0x3e371de8	0.17882502
174	0xbcab8927	-0.020939423
175	0x3df19994	0.11796871
176	0xbe655047	-0.22393905
177	0x3d03181a	0.032005407
178	0xbe710861	-0.23538353
179	0xbea8778f	-0.32903716
180	0x3d676ea3	0.056501996
181	0x3dfe00b5	0.124024786
182	0xbb84d962	-0.0040542344
183	0x3e6f8a8c	0.23392695
184	0xbdee9999	-0.1165039
185	0x3e1b1d41	0.15147878
186	0x3e3f3ec5	0.18676288
187	0xbd84fd69	-0.06493647
188	0xbe39f298	-0.18158948
189	0xbe205b23	-0.15659766
190	0xbe101c3e	-0.14073274
191	0x3d80a74a	0.06281908
192	0xbd9b4df6	-0.07583229
193	0xbe47d68f	-0.19515441
194	0x3d778449	0.06042889
195	0x3e98047f	0.2969093
196	0xbe971fcf	-0.29516456
197	0x3e1f9dc9	0.15587534
198	0xbe3f05cd	-0.18654557
199	0xbd37502f	-0.044754203
200	0xbdd0d88d	-0.10197554
201	0x3f2678c3	0.6502802
202	0xbebe41d4	-0.37159598
203	0x3e71be2d	0.23607703
204	0xbe840778	-0.25786948
205	0xbe73d922	-0.23813298
206	0xbe130032	-0.14355543
207	0x3d063156	0.032761894
208	0xbe72d31c	-0.23713344
209	0x3eed75b8	0.46378875
210	0x3d0e1f3d	0.03469776
211	0x3c803619	0.015650796
212	0xbeab38cf	-0.3344178
213	0x3e8aab35	0.27083746
214	0xbedba96b	-0.42902693
215	0x3dcb245e	0.09919046
216	0xbeb4599e	-0.35224622
217	0xbee41c6e	-0.4455294
218	0x3ed86495	0.42264238
219	0xbdbc79f1	-0.09202946
220	0x3d59ade3	0.053144347
221	0xbe3094f0	-0.17244315
222	0xbdb0e535	-0.08637468
223	0xbe3f70c5	-0.18695362
224	0xbdf234f5	-0.11826507
225	0x3e192ee3	0.14959292
226	0xbe805e43	-0.25071916
227	0xbd834e13	-0.06411376
228	0xbe4ffe66	-0.20311889
229	0x3e13b11d	0.14423032
230	0x3e70ab2f	0.23502801
231	0x3dd0aa93	0.101887845
232	0xbd9ac913	-0.07557883
233	0x3e1c0a57	0.1523832
234	0x3e2e4c38	0.17021263
235	0xbe21d35e	-0.15803286
236	0x3e20e0bd	0.15710731
237	0x3d93fbf9	0.07225794
238	0x3d756620	0.059911847
239	0x3d357618	0.044302076
240	0x3f12cfb0	0.57348156
241	0x3d330545	0.043706197
242	0x3edab680	0.4271736
243	0xbdb52297	-0.08844488
244	0x3ee5ad52	0.44858795
245	0x3e597a02	0.21237949
246	0xbef92fcd	-0.48669282
247	0x3ed6b2bf	0.41933247
248	0x3e9609c2	0.2930432
249	0x3c4788ce	0.012178613
250	0xbeb1b639	-0.34709337
251	0x3ecfd015	0.40588441
252	0x3e902b0c	0.28157842
253	0xbe37002c	-0.1787116
254	0x3d7d1d01	0.06179524
255	0xbe9d2534	-0.30692446

layers.3.bias f4 [20]
0	0x3e62a8ed	0.22134753
1	0xbd989c8a	-0.074517325
2	0xbe39e951	-0.1815541
3	0xbe14d2fd	-0.1453361
4	0xbe010327	-0.12598859
5	0x3e316f29	0.1732756
6	0x3e6dd909	0.23227324
7	0xbe438d33	-0.19096832
8	0x3dcdab0c	0.1004239
9	0x3d679915	0.056542475
10	0x3cdee343	0.027207976
11	0x3e1d9689	0.15389456
12	0xbe27b335	-0.16376956
13	0x3daeba10	0.08531582
14	0xbe4a0d9e	-0.19731757
15	0xbe1cb1ba	-0.15302172
16	0xbdc8f241	-0.09811831
17	0x3e0d4eeb	0.13799636
18	0x3e047a0b	0.1293718
19	0xbdf877bd	-0.12132213

layers.4.weight f4 [20, 20]
0	0xbe3facc7	-0.18718253
1	0xbed67a1d	-0.4189004
2	0x3d1c9e37	0.038236823
3	0x3ecbaee3	0.39781865
4	0x3f455e6f	0.7709722
5	0x3e371532	0.17879179
6	0xbf20101d	-0.62524587
7	0xbdd7332e	-0.105078086
8	0x3e2e06bc	0.16994756
9	0xbdaf686d	-0.085648395
10	0xbdfcce7f	-0.123440735
11	0xbdc174e4	-0.09446123
12	0x3e101a4b	0.1407253
13	0xbec7323a	-0.38905507
14	0xbf326f62	-0.69701207
15	0x3ea51125	0.32239643
16	0x3d5c7d22	0.053830273
17	0xbe66b443	-0.22529702
18	0xbf0e53a8	-0.555964
19	0x3eba1eff	0.36351773
20	0x3d260a0e	0.040536933
21	0x3ea16fbb	0.31530556
22	0xbe808279	-0.25099543
23	0xbe32ec78	-0.17473018
24	0xbdd47fbe	-0.103759274
25	0xbe5995fa	-0.21248618
26	0x3e20a589	0.15688147
27	0xbd6dea99	-0.058085058
28	0xbea53a3b	-0.3227099
29	0xbdeef78a	-0.11668308
30	0xbe1b498e	-0.15164778
31	0xbdf78c8d	-0.12087355
32	0x3c89cf47	0.01682247
33	0x3e1ff606	0.15621194
34	0x3d7e57eb	0.062095564
35	0xbe144e59	-0.14483012
36	0x3c68a24c	0.014198851
37	0x3adca5f3	0.0016834125
38	0x3d403d17	0.04693326
39	0xbe3e1d8c	-0.18565959
40	0x3db9156a	0.090372875
41	0x3dceee66	0.10104065
42	0xbed3d873	-0.41376075
43	0xbdafc782	-0.08582975
44	0x3dad1020	0.08450341
45	0x3e4fd9a4	0.20297867
46	0x3d73047f	0.05933046
47	0x3e09ff6d	0.13476343
48	0x3d8fb887	0.07017618
49	0x3e4532af	0.19257616
50	0x3e9de0c6	0.3083555
51	0xbb948f04	-0.0045336504
52	0x3dd54371	0.10413254
53	0x3e48db0c	0.1961481
54	0xba7d0216	-0.0009651495
55	0xbe7fed14	-0.24992782
56	0xbe372d18	-0.17888296
57	0x3e3af37c	0.18256944
58	0xbe358323	-0.17725806
59	0xbe3e44d9	-0.18580951
60	0x3e85ed03	0.26157388
61	0xbdbfe705	-0.09370235
62	0x3efe2532	0.49637753
63	0xbd72634d	-0.05917673
64	0xbf05696f	-0.52114004
65	0x3e6fccd7	0.23417984
66	0xbf1370f7	-0.57594246
67	0xbf167256	-0.5876821
68	0xbe99bd05	-0.30027023
69	0xbe735b68	-0.23765337
70	0xbf417ff4	-0.75585866
71	0x3d4abf0b	0.0494986
72	0x3f20471f	0.6260852
73	0x3e008c4e	0.12553522
74	0x3edb2e6e	0.4280886
75	0x3dae543f	0.085121624
76	0xbf0a8be3	-0.541197
77	0xbd9ef044	-0.07760671
78	0xbd00f162	-0.0314802
79	0xbecb6b69	-0.39730385
80	0x3e12b951	0.14328505
81	0x3e8bbb33	0.2729126
82	0xbe86416b	-0.26221785
83	0xbec6875b	-0.38775143
84	0xbbd7cd2e	-0.0065857386
85	0xbf045b8a	-0.5170218
86	0xbd548c83	-0.051891815
87	0x3e62783d	0.2211618
88	0xbd774f09	-0.06037811
89	0xbe8a3f13	-0.27001247
90	0x3e1df0c0	0.1542387
91	0x3e1d00af	0.15332292
92	0x3cfbb408	0.030725494
93	0x3ec5decb	0.3864654
94	0x3e3db2c3	0.18525223
95	0xbe8ed0f1	-0.27893785
96	0x3cbf4dd6	0.023352545
97	0xbe43487f	-0.19070624
98	0x3e1bfb62	0.15232614
99	0xbe184376	-0.14869484
100	0x3e72c812	0.23709133
101	0x3ea6022d	0.32423535
102	0x3e722e6a	0.23650518
103	0xbddf83d6	-0.109138176
104	0x3da6854a	0.081308916
105	0xbe997304	-0.29970562
106	0xbc2f7d24	-0.010710988
107	0xbe27803d	-0.16357513
108	0xbd8b47ad	-0.068007804
109	0xbd441445	-0.047870893
110	0xbe471bc1	-0.19444181
111	0x3e61dab3	0.22056083
112	0xbe11a871	-0.14224412
113	0x3d0d5855	0.034508068
114	0xbc7d3451	-0.015454368
115	0xbe6ae2da	-0.229381
116	0x3e259540	0.16170216
117	0x3a206e25	0.00061199284
118	0x3a82f075	0.0009989875
119	0xbe887a03	-0.26655588
120	0x3e4c5dab	0.19957606
121	0x3e857bed	0.2607111
122	0xbe31438b	-0.17310922
123	0xbd3a8cfc	-0.04554461
124	0xbe8b89e8	-0.27253652
125	0xbeb733e1	-0.35781768
126	0x3e4919ea	0.19638792
127	0xbc3b2158	-0.011421524
128	0xbdecf82b	-0.11570772
129	0xbea572da	-0.32314187
130	0xbdd13856	-0.10215823
131	0x3e5155db	0.20442908
132	0xbe9bcf07	-0.30431387
133	0x3dae1f77	0.08502095
134	0xbe1f2f5d	-0.15545411
135	0xbc4bfc78	-0.01245033
136	0xbd049ddd	-0.032377113
137	0xbdd51faa	-0.1040643
138	0x3e297895	0.16549905
139	0xbe16186f	-0.14657758
140	0x3dd37600	0.10325241
141	0x3c34df4d	0.011039567
142	0xbe849eb8	-0.25902343
143	0x3e8187f3	0.25299034
144	0x3e255b6e	0.16148159
145	0x3d730e27	0.05933967
146	0xbe857dfb	-0.26072678
147	0xbdae6974	-0.08516207
148	0xbe1829fd	-0.14859767
149	0x3e32b61b	0.1745228
150	0xbd3ddfc5	-0.04635598
151	0x3e55cf6a	0.20879903
152	0x3dc04bcd	0.09389458
153	0x3ec50eed	0.3848795
154	0xbdcd018a	-0.10010059
155	0x3e10ad92	0.14128712
156	0x3e80cd2e	0.2515654
157	0xbd5f5d7a	-0.054532506
158	0xbe3a0587	-0.18166171
159	0x3e1f3fc3	0.15551667
160	0x3d58a06a	0.052887358
161	0xbdcf7a97	-0.10130804
162	0xbd7ba293	-0.06143434
163	0x3e17129f	0.14753197
164	0x3e1e7808	0.15475476
165	0x3ed423fa	0.41433698
166	0x3dc43379	0.0958013
167	0x3e2647db	0.16238348
168	0x3e4ad2a7	0.1980692
169	0xbce4fd07	-0.027952684
170	0xbe2a49f4	-0.16629773
171	0xbcd940cd	-0.026520157
172	0x3e0b3d93	0.13597707
173	0xbe78ec9c	-0.2430901
174	0xba322750	-0.0006796019
175	0x3e37ffa5	0.17968614
176	0xbdc988ef	-0.09840571
177	0x3e4f4251	0.20240141
178	0xbe113e9f	-0.14184044
179	0x3e447423	0.19184928
180	0xbd327015	-0.04356392
181	0x3e3684af	0.17824052
182	0xbe816c9a	-0.2527817
183	0x3c3dfe08	0.01159621
184	0x3e92e77d	0.28692237
185	0xbe64e762	-0.2235389
186	0x3dd075a9	0.10178692
187	0x3e86a45b	0.26297268
188	0xbdb86141	-0.09002925
189	0x3d339e80	0.04385233
190	0x3e33f7ca	0.17574993
191	0xbe621bdc	-0.2208094
192	0x3e19a754	0.15005237
193	0xbe211691	-0.15731265
194	0xbe22b07b	-0.15887634
195	0x3e0c7a9a	0.13718644
196	0xbdbcb002	-0.09213258
197	0x3dd8e57f	0.10590648
198	0xbe93738b	-0.2879909
199	0x3c79ecf3	0.015254247
200	0xbe2911d3	-0.16510706
201	0x3eb78245	0.35841575
202	0x3e9612f4	0.29311335
203	0x3e6f2c40	0.23356724
204	0x3daf9b9e	0.085746035
205	0xbd76a4ac	-0.060215637
206	0xbd50a43b	-0.050937872
207	0xbe8b6124	-0.2722255
208	0xbea0dd7a	-0.31418973
209	0xbe7dba09	-0.24777998
210	0xbe55f0bc	-0.20892614
211	0xbe459b47	-0.19297515
212	0xbdf88f0b	-0.12136658
213	0xbe081c60	-0.13292074
214	0xbdc76ead	-0.097379066
215	0x3e2d8bad	0.16947813
216	0x3d776b0f	0.060404833
217	0x3dacd39d	0.084387995
218	0x3e70dc7a	0.23521605
219	0xbd9af24a	-0.07565744
220	0xbe82560c	-0.25456274
221	0xbc360e61	-0.011111827
222	0x3da6edc8	0.08150822
223	0xbd30bc33	-0.04314823
224	0xbe113de3	-0.14183764
225	0xbd25cfd9	-0.040481422
226	0x3e475568	0.19466174
227	0x3e5f4824	0.21804863
228	0x3de17734	0.11009064
229	0x3e0cde2f	0.13756631
230	0x3d23cbb5	0.039989192
231	0xbe7a03a7	-0.24415456
232	0x3def47e4	0.11683634
233	0xbeb19860	-0.34686565
234	0xbc984d9a	-0.01859169
235	0x3e433c3f	0.19065951
236	0xbdaae965	-0.08345298
237	0x3e030206	0.1279374
238	0xbe25dab2	-0.16196707
239	0x3e0c65cf	0.13710712
240	0xbd54632b	-0.051852386
241	0x3de4eb2b	0.11177667
242	0x3de83fc7	0.113402896
243	0xbd863c89	-0.06554515
244	0xbe23e589	-0.1600553
245	0xbeab6183	-0.33472833
246	0xbd9f9211	-0.07791532
247	0xbea3034c	-0.31838453
248	0xbd641db1	-0.05569238
249	0x3df04102	0.11731149
250	0xbe24d39d	-0.16096349
251	0x3e3de063	0.18542628
252	0xbe371fdc	-0.17883247
253	0xbd2ee070	-0.04269451
254	0xbe004025	-0.12524469
255	0x3d3ef298	0.046618074

layers.4.bias f4 [20]
0	0xbeaf7d41	-0.3427525
1	0xbd4f3b41	-0.05059362
2	0x3e523133	0.2052658
3	0xbe0db2ec	-0.13837785
4	0xbe39b32e	-0.18134758
5	0x3e34cf18	0.17657125
6	0xbd032936	-0.032021724
7	0x3dbbf1ed	0.09177003
8	0x3e5418a1	0.2071252
9	0x3e318cb9	0.17338838
10	0x3e1bbdd2	0.1520913
11	0x3e3f778f	0.18697952
12	0x3e0f1a9e	0.13974997
13	0xbe6a7e98	-0.22899854
14	0x3e79eb6c	0.24406213
15	0xbd2eb87e	-0.042656414
16	0xbd545667	-0.051840212
17	0x3e47763e	0.194787
18	0x3d226aea	0.039652742
19	0xbe6ae493	-0.22938757

layers.5.weight f4 [20, 20]
0	0x3dac4afb	0.08412739
1	0x3e6bd10d	0.23028965
2	0x3defbe91	0.117062695
3	0xbe8054df	-0.25064752
4	0x3dfc64ee	0.12323938
5	0x3e00a2b5	0.12562068
6	0xbd76817b	-0.060182076
7	0xbe0510b2	-0.1299465
8	0x3cf12e4e	0.029441025
9	0xbe5c4809	-0.21511854
10	0xbccb9d28	-0.024855211
11	0xbeae366d	-0.340259
12	0xbe21ff3b	-0.15820019
13	0xbcd5019a	-0.02600174
14	0x3dd8e7fe	0.10591124
15	0x3dbb7a1b	0.09154149
16	0xbed6baf7	-0.41939518
17	0xbdc9650a	-0.09833725
18	0xbe0766be	-0.13222787
19	0xbe85d66b	-0.2614015
20	0xbea66c75	-0.3250462
21	0x3e844cb2	0.25839764
22	0xbda87056	-0.082245514
23	0xbec7ab81	-0.38998035
24	0x3e337066	0.17523345
25	0x3ea4caa4	0.32185853
26	0x3d48438f	0.048892554
27	0xbdfd59de	-0.123706564
28	0xbec4b2d5	-0.38417688
29	0x3df6e276	0.12054913
30	0x3d25d70d	0.04048829
31	0xbeb604a2	-0.3555041
32	0x3e89a9a7	0.26887247
33	0xbec8c32d	-0.39211407
34	0x3c430996	0.011904141
35	0xbd9b4d13	-0.0758306
36	0xbe027d6b	-0.12743156
37	0x3db5e9a1	0.08882452
38	0x3ddb61e9	0.10712034
39	0xbe5642e0	-0.20923948
40	0x3daf4410	0.08557904
41	0xbef9548c	-0.48697317
42	0xbdd3f114	-0.103487164
43	0x3f0b780b	0.54480046
44	0xbebaa862	-0.3645659
45	0x3c87a957	0.01656024
46	0xbec71c73	-0.38888893
47	0x3e343d26	0.17601451
48	0x3e2f6210	0.17127252
49	0xbc66add6	-0.014079532
50	0x3ca32d5a	0.019919086
51	0xbe0c1bbc	-0.13682455
52	0x3c04ef17	0.008113644
53	0x3d97d086	0.074128196
54	0xbe89e27f	-0.26930615
55	0xbe04ada9	-0.12956871
56	0x3f0b411e	0.54396236
57	0x3d1ec8ff	0.038765904
58	0x3d42c57e	0.047551624
59	0x3dd065ab	0.101756416
60	0x3d9e8f81	0.07742215
61	0xbd88d951	-0.06682075
62	0xbe917e50	-0.2841668
63	0xbda2531e	-0.079260096
64	0xbd5e5f34	-0.05429001
65	0xbc88675c	-0.016650848
66	0xbe0b728e	-0.13617918
67	0xbe39b603	-0.18135838
68	0xbe26484e	-0.1623852
69	0xbe64d8d2	-0.22348335
70	0x3ddae515	0.10688225
71	0x3da911d4	0.082553536
72	0xbe84fff4	-0.25976527
73	0x3ee4f5c4	0.44718754
74	0xbf26c751	-0.6514788
75	0x3dd06847	0.10176139
76	0x3ee141ef	0.43995616
77	0xbc32b493	-0.01090731
78	0xbd977b38	-0.07396549
79	0xbe753d0f	-0.23949073
80	0xbf21d559	-0.6321617
81	0x3e8f95b5	0.28043905
82	0x3dfa17b6	0.12211554
83	0xbe15c95c	-0.14627594
84	0x3ec744e3	0.38919744
85	0xbe67867e	-0.22609898
86	0x3eb950f9	0.3619459
87	0x3dd0cbf7	0.10195153
88	0xbe41bcf5	-0.18919738
89	0x3e83670b	0.25664553
90	0x3e043542	0.12910941
91	0xbe00441e	-0.12525985
92	0x3db2e607	0.087352805
93	0x3d69d202	0.057085045
94	0x3e2c5bca	0.1683189
95	0xbe460480	-0.19337654
96	0x3e3957f8	0.18099964
97	0xbe1ac13a	-0.15112773
98	0x3e2d14d6	0.1690248
99	0x3e677f5b	0.22607176
100	0xbdb2175c	-0.08695862
101	0x3b77f446	0.0037834807
102	0x3e6202ba	0.22071353
103	0x3eae70b2	0.34070355
104	0xbdd8e30a	-0.10590179
105	0xbe653dd0	-0.22386861
106	0x3d6dbf22	0.058043607
107	0xbe02f3db	-0.12788336
108	0xbdb65873	-0.08903589
109	0x3e646ee9	0.22307934
110	0xbde3a653	-0.11115708
111	0x3d9d5076	0.07681362
112	0xbe24705d	-0.16058488
113	0x3e7b6ee9	0.24554028
114	0x3e1e61d3	0.15467004
115	0xbe618eea	-0.22027174
116	0x3e0f54f5	0.13997252
117	0xbcee0db5	-0.02905927
118	0xbe9dbd91	-0.3080869
119	0xbdf17abc	-0.11790988
120	0x3cae5e94	0.021285333
121	0x3e055a95	0.13022836
122	0x3e15c30f	0.1462519
123	0x3e0302f9	0.12794103
124	0x3efd7e79	0.49510553
125	0x3e054f2a	0.1301848
126	0x3e03e7bb	0.12881367
127	0x3d3fbe37	0.046812262
128	0xbda68880	-0.08131504
129	0x3ea92529	0.33036163
130	0x3c14b0aa	0.009075323
131	0x3d01c0ec	0.031678125
132	0xbbc721fc	-0.0060770493
133	0xbe48e36b	-0.19618003
134	0x3e41e934	0.18936616
135	0xbe5610da	-0.20904866
136	0xbe9982b5	-0.29982534
137	0x3e798fdc	0.24371284
138	0x3cb90988	0.022587553
139	0x3e670956	0.22562155
140	0xbdbac3c7	-0.09119373
141	0xbe3203ff	-0.17384337
142	0x3db69aca	0.089162424
143	0x3df7353c	0.120707005
144	0xbf2b631b	-0.669481
145	0x3e257a80	0.16160011
146	0xbe8abc98	-0.2709701
147	0xbe78112e	-0.24225304
148	0x3e6ffefc	0.23437113
149	0xbefb875a	-0.49126703
150	0x3d7d770b	0.061881106
151	0x3b5c09a0	0.0033575073
152	0xbcf7e822	-0.030262057
153	0x3dea0230	0.114261985
154	0xbec0f16d	-0.37684193
155	0x3e228d9d	0.15874334
156	0x3ef3d0d1	0.47620252
157	0xbeabe290	-0.3357129
158	0xbe48af7e	-0.19598195
159	0xbdca290e	-0.09871112
160	0xbe559063	-0.2085586
161	0x3e316045	0.1732188
162	0xbe4de481	-0.20106699
163	0x3f2503f1	0.6445914
164	0x3e619e6e	0.22033092
165	0xbe0e88d1	-0.13919379
166	0x3dac0dbb	0.084010564
167	0xbe21839b	-0.1577286
168	0x3db112b1	0.08646143
169	0xbe1097ac	-0.14120358
170	0x3e122a3e	0.14273927
171	0x3ddd5a2e	0.10808216
172	0x3d8c1148	0.06839234
173	0x3e71b844	0.23605448
174	0xbf1951fc	-0.59890723
175	0xbdbca893	-0.092118405
176	0x3dc1bfe8	0.09460431
177	0xbe0ef75e	-0.1396155
178	0xbd40abb2	-0.04703874
179	0x3d8dcdb8	0.06924003
180	0x3c98f1a3	0.018669909
181	0x3df0a0f4	0.11749449
182	0xbdeb4317	-0.11487406
183	0xbe7f3736	-0.24923405
184	0xbceaa8fd	-0.028645033
185	0x3e3f65ce	0.18691179
186	0x3d0278ee	0.03185361
187	0x3dd235fd	0.10264204
188	0xbdb588dc	-0.088639945
189	0xbe2a75b7	-0.16646467
190	0x3ba1faa1	0.0049432074
191	0xbdea1b5c	-0.11431
192	0x3e4d3294	0.20038825
193	0xbd6219dc	-0.055200443
194	0xbd4e5248	-0.05037144
195	0xbcda0dda	-0.026617933
196	0x3da05cf8	0.078302324
197	0x3e37f696	0.17965159
198	0xbcecef88	-0.028922811
199	0xbe34c7a3	-0.1765428
200	0xbe66620e	-0.22498342
201	0x3eadc197	0.3393676
202	0xbd485833	-0.04891224
203	0xbeb006a5	-0.3438007
204	0x3e9b2cbd	0.3030757
205	0x3def950a	0.11698349
206	0x3ed7eb9e	0.4217195
207	0xbc69c1cb	-0.014267395
208	0xbe52eec7	-0.20598899
209	0xbe4b0090	-0.19824433
210	0x3e81469c	0.25249183
211	0xbd89d471	-0.06729973
212	0x3cea338c	0.028589033
213	0xbe5e2ac6	-0.21696004
214	0xbe55f5c3	-0.20894532
215	0xbd8a5487	-0.067544036
216	0xbeb36a19	-0.35041884
217	0x3e60582e	0.21908638
218	0xbe851071	-0.25989106
219	0xbcdd8b7a	-0.027044047
220	0xbcdcb9a5	-0.026943991
221	0x3d81e26c	0.06342015
222	0x3e371bf3	0.17881756
223	0x3eda6100	0.4265213
224	0xbe2a7317	-0.16645466
225	0xbebb443b	-0.36575493
226	0x3d7b1c58	0.061306328
227	0xbe846363	-0.25857076
228	0x3e22d12a	0.15900102
229	0x3b2c01b0	0.0026246123
230	0x3cf9bc03	0.030485159
231	0x3ea5ecb0	0.3240714
232	0xbeb4d86a	-0.3532136
233	0x3e89bd6f	0.2690234
234	0xbdf6e5cf	-0.12055551
235	0xbdc76530	-0.09736097
236	0x3e8e642d	0.27810803
237	0x3e4c5599	0.19954528
238	0xbea65d64	-0.32493126
239	0xbd123e24	-0.035703793
240	0xbd097984	-0.033563152
241	0xbc96c8a2	-0.018406216
242	0x3cebb6ac	0.028773628
243	0xbd1268c4	-0.035744444
244	0x3e479ec7	0.19494162
245	0xbe38404c	-0.17993277
246	0xbe576bdb	-0.21037237
247	0x3e1d03b5	0.15333445
248	0x3bad7bd5	0.005294303
249	0x3e83da46	0.25752467
250	0xbd45d412	-0.04829795
251	0xbba5100a	-0.0050373124
252	0xbe1e2a02	-0.15445712
253	0x3e53425e	0.20630786
254	0xbd2f4cfa	-0.04279802
255	0x3e1fa2a4	0.15589386

layers.5.bias f4 [20]
0	0x3d774ee6	0.060377978
1	0xbd551411	-0.05202109
2	0x3dd4142d	0.10355411
3	0xbe20ccdc	-0.15703148
4	0x3d0f58d5	0.034996826
5	0xbdc8a590	-0.097972035
6	0x3dc4ae01	0.09603501
7	0x3c2e8dba	0.010653907
8	0xbdd13904	-0.10215953
9	0x3cd4d286	0.025979292
10	0x3e497fd0	0.19677663
11	0xbe3cef13	-0.18450575
12	0x3e355f5e	0.17712161
13	0x3e122eea	0.14275709
14	0xbdf0161a	-0.117229655
15	0x3e1434cf	0.1447327
16	0x3e4d225c	0.20032638
17	0x3c0e2dba	0.008677894
18	0x3e326552	0.17421463
19	0x3d8e2ccf	0.0694214

layers.6.weight f4 [20, 20]
0	0x3e323f8e	0.17407057
1	0x3e88c4c0	0.26712608
2	0xbe6f9c7f	-0.23399542
3	0xbdf13173	-0.1177701
4	0xbe2c3feb	-0.16821258
5	0xbea00cca	-0.31259757
6	0xbdda1788	-0.106490195
7	0x3df8450f	0.12122547
8	0xbe848b47	-0.2588751
9	0xbcfb019e	-0.03064042
10	0x3ede9114	0.4347006
11	0xbe86e19b	-0.26343998
12	0x3e6a7262	0.22895196
13	0x3e6b05a0	0.22951365
14	0xbe493258	-0.19648111
15	0xbdae28e0	-0.0850389
16	0xbdc83dff	-0.0977745
17	0x3e4397a6	0.19100818
18	0xbd14339c	-0.03618203
19	0xbd8b1111	-0.067903645
20	0x3e031553	0.12801103
21	0xbcfea9c3	-0.031086808
22	0x3e718e06	0.23589334
23	0x3e82b0b8	0.2552545
24	0x3d286788	0.04111436
25	0xbe99e1d8	-0.30055118
26	0xbe7af04c	-0.24505728
27	0x3db0afdf	0.08627295
28	0xbe5bc52d	-0.21461935
29	0x3d95cd3d	0.07314537
30	0xbd8b3b7d	-0.06798456
31	0xbe452b2f	-0.19254754
32	0x3c78582b	0.01515774
33	0xbc7ad944	-0.015310589
34	0xbcfd1887	-0.030895485
35	0xbce4f7f6	-0.027950268
36	0x3d394cfa	0.045239426
37	0xbea3796e	-0.3192858
38	0xbdb99d8b	-0.09063252
39	0xbe578813	-0.21048002
40	0xbda77e4b	-0.08178385
41	0xbf12087e	-0.5704421
42	0x3b165c38	0.002294315
43	0x3e6728ca	0.22574154
44	0xbee70dc1	-0.4512768
45	0x3edcdba3	0.4313632
46	0x3b0f2dda	0.0021847398
47	0x3e0f7744	0.1401034
48	0x3e096a42	0.1341944
49	0xbe7519a7	-0.23935567
50	0xbececcec	-0.40390718
51	0x3e81b5b0	0.2533393
52	0x3d8b673c	0.068068
53	0xbeb20d3b	-0.3477572
54	0xbd6c50f9	-0.05769441
55	0xbe04bf31	-0.12963559
56	0xbe8c39d0	-0.27387857
57	0xbe1ae9c3	-0.15128236
58	0xbe495a06	-0.19663247
59	0x3cfc6743	0.030810958
60	0xbdc65124	-0.09683445
61	0x3db150c8	0.08657986
62	0x3e8fe35b	0.28103146
63	0xbe0571c2	-0.13031676
64	0xbe3b72cc	-0.1830551
65	0xbe2c3259	-0.16816081
66	0xbe50b31c	-0.20380825
67	0x3e51e195	0.20496209
68	0x3d0d972e	0.034568004
69	0x3d85e29b	0.06537362
70	0x3e6a1ee0	0.2286334
71	0xbe768c24	-0.24076897
72	0x3c80c504	0.015718944
73	0x3d187e65	0.037229914
74	0xbd868625	-0.06568555
75	0x3ded9323	0.1160033
76	0xbd39e312	-0.045382567
77	0x3d846061	0.06463695
78	0xbe0027dd	-0.12515207
79	0xbdffcc3e	-0.12490128
80	0xbd3ecefa	-0.046584107
81	0xbe7a8b25	-0.24467142
82	0x3e0612b9	0.1309308
83	0xbd850f0a	-0.06497009
84	0xbd52dc9f	-0.051479932
85	0x3eb01bf8	0.34396338
86	0x3ca18510	0.01971677
87	0xbe39b53f	-0.18135546
88	0x3e323be1	0.17405654
89	0x3dbd716a	0.09250148
90	0xbeb9dca9	-0.36301163
91	0xbdac060b	-0.0839959
92	0x3deeb639	0.1165585
93	0x3e0a957f	0.1353359
94	0x3e07672b	0.13222949
95	0x3e238448	0.1596843
96	0x3c02272d	0.007943911
97	0xbc8842b3	-0.016633367
98	0xbd28bd16	-0.04119595
99	0x3e3ba7eb	0.18325774
100	0xbd9d7b1b	-0.07689496
101	0x3bf119e7	0.007357824
102	0xbe422f97	-0.18963467
103	0xbdf536c1	-0.11973334
104	0xbe366ef3	-0.17815761
105	0xbedd1fa2	-0.43188196
106	0xbe2d10f6	-0.16901001
107	0x3e882f52	0.26598603
108	0xbe6f0647	-0.23342238
109	0x3e1f8f12	0.1558192
110	0x3e8232e3	0.25429448
111	0xbe90add3	-0.28257617
112	0x3e21614a	0.15759769
113	0xbd144218	-0.036195844
114	0xbe91a0a4	-0.28442872
115	0x3e5236b9	0.20528688
116	0xbe3e4fd2	-0.18585137
117	0xbe33ef69	-0.17571796
118	0xbc9c2fb6	-0.01906572
119	0x3e070fd8	0.13189638
120	0xbe16e06d	-0.14734049
121	0x3ea3083c	0.3184222
122	0xbe655898	-0.22397077
123	0x3e33806d	0.1752946
124	0x3d647d4f	0.055783566
125	0xbf26e0d6	-0.6518682
126	0x3def6bd1	0.11690486
127	0xbe65c0fb	-0.22436897
128	0xbed0bc43	-0.40768632
129	0x3e88c3bd	0.26711836
130	0x3ebba9ef	0.36653087
131	0xbe967da5	-0.29392734
132	0x3dc41bc1	0.09575606
133	0x3e3f080e	0.18655416
134	0xbec73ec1	-0.38915065
135	0x3d2169f3	0.03940768
136	0x3d9cd2fe	0.07657431
137	0x3ddf1dc0	0.10894346
138	0xbe8d852a	-0.2764066
139	0x3e8f978c	0.2804531
140	0x3e04611d	0.12927671
141	0x3df25088	0.11831766
142	0x3d3ec3b5	0.04657336
143	0xbcc1a46b	-0.02363797
144	0x3e1e6fde	0.15472361
145	0x3e762061	0.24035789
146	0x3d690f13	0.05689914
147	0xbe242ae1	-0.16031982
148	0xbdb81bf9	-0.0898971
149	0xbd260a8e	-0.04053741
150	0xbd7691b9	-0.060197566
151	0xbe072a19	-0.13199653
152	0x3de69bab	0.1126016
153	0x3d67419a	0.056459047
154	0xbcc9f2fd	-0.024651999
155	0xbd91f8de	-0.07127546
156	0x3e20de78	0.15709865
157	0x3e82963a	0.2550524
158	0x3d1099c1	0.03530288
159	0x3d8b0449	0.06787927
160	0x3da5c8cf	0.08094942
161	0xbdfd1ebd	-0.123593785
162	0xbeb32354	-0.3498789
163	0x3deb8fca	0.11502035
164	0xbddb4272	-0.10706033
165	0x3d8d5ea6	0.069028184
166	0x3e5b8b93	0.21439962
167	0xbeaac2de	-0.33351797
168	0xbdd89c09	-0.10576636
169	0x3a9f8a66	0.0012171983
170	0xbc7f36e4	-0.015577052
171	0xbcbbe7d1	-0.022937687
172	0xbe4db152	-0.20087174
173	0xbd58c9b8	-0.05292675
174	0x3a9278ad	0.001117488
175	0xbe60be8d	-0.2194769
176	0x3d0dbff6	0.034606896
177	0x3d8dccb6	0.06923811
178	0x3e2c6f74	0.16839391
179	0xbd8aa450	-0.06769621
180	0x3d940ef0	0.072294116
181	0xbd4dee7c	-0.050276265
182	0x3cc70a56	0.02429692
183	0xbe0daa24	-0.13834435
184	0x3dbb3b32	0.0914215
185	0x3e7ff578	0.24995983
186	0x3e7483e9	0.23878445
187	0x3d30f87d	0.043205727
188	0xbd4bd215	-0.049760897
189	0xbd053a8f	-0.03252655
190	0xbb85c1d7	-0.0040819454
191	0x3dba1615	0.09086243
192	0x3d93a3c4	0.0720897
193	0xbe12ef59	-0.14349116
194	0x3dffa670	0.12482917
195	0x3e19a831	0.15005566
196	0x3c961636	0.018321138
197	0xbd66d581	-0.056355957
198	0xbc6071c7	-0.013699002
199	0xbc2f073a	-0.010682875
200	0x3e84f453	0.25967655
201	0x3d9f411d	0.07776091
202	0x3d598e9f	0.05311453
203	0xbe146c51	-0.14494444
204	0xbe105d47	-0.14098082
205	0xbe67b7ba	-0.2262868
206	0x3e346be8	0.17619288
207	0x3d10594c	0.03524141
208	0xbe915bf5	-0.2839047
209	0x3e687b5f	0.22703312
210	0x3e000dcd	0.12505265
211	0xbe8c8796	-0.27447194
212	0xbdf97240	-0.121799946
213	0x3e248c33	0.16069107
214	0xbdee5c70	-0.11638725
215	0x3ce6dcbc	0.028181426
216	0xbd8b9840	-0.06816149
217	0xbe6621c9	-0.22473826
218	0xbe6a4b1a	-0.22880211
219	0x3e1ba645	0.15200146
220	0x3d9c1eea	0.07623084
221	0xbe0d574f	-0.13802837
222	0xbd953041	-0.07284594
223	0xbe836abf	-0.25667378
224	0x3d188a04	0.037240997
225	0xbd619f18	-0.055083364
226	0x3e5c66e8	0.2152363
227	0xbe8e2bc7	-0.27767774
228	0x3cf15926	0.029461455
229	0x3de469f5	0.11153022
230	0x3e1c2cd9	0.15251483
231	0xbd672204	-0.056428924
232	0x3da08a7b	0.07838913
233	0xbe568b38	-0.20951545
234	0x3e5ff06d	0.21869059
235	0x3cab4496	0.020906728
236	0xbdcf654d	-0.101267435
237	0x3e822c1e	0.25424284
238	0x3dec49d2	0.115375176
239	0x3a8f6bf6	0.0010942209
240	0x3d8d07dd	0.068862654
241	0xbd2fbafa	-0.042902924
242	0x3de819ca	0.11333044
243	0x3dbbec24	0.091758996
244	0x3c878c8b	0.016546508
245	0xbe598602	-0.21242526
246	0x3cbc2aa0	0.022969544
247	0x3daaa780	0.08332729
248	0xbc316716	-0.0108278
249	0xbd9656fa	-0.07340808
250	0x3e5783c6	0.21046361
251	0x3e1d74ee	0.15376636
252	0xbd70bced	-0.058773924
253	0x3daabe07	0.08337026
254	0x3cfcdeb8	0.03086792
255	0xbdab6613	-0.083690785

layers.6.bias f4 [20]
0	0xbdb300ee	-0.08740412
1	0x3cdc1ca4	0.026869126
2	0x3e46b979	0.1940669
3	0xbd270720	-0.04077828
4	0xbe0a8b88	-0.1352979
5	0xbe02ad31	-0.1276138
6	0x3e46aec6	0.19402608
7	0xbdfdcb03	-0.12392237
8	0x3c928def	0.017889945
9	0xbd2cd3d1	-0.04219419
10	0xbd6b77b3	-0.0574872
11	0xbe70458d	-0.23464032
12	0xbd4c05c4	-0.049810186
13	0x3d1f7175	0.03892656
14	0x3e4ff9fe	0.20310208
15	0xbe3dc914	-0.18533736
16	0xbd201a7c	-0.039087757
17	0x3e313226	0.17304286
18	0x3d4e541f	0.050373193
19	0xbd2a7f4b	-0.041625302

layers.7.weight f4 [1, 20]
0	0x3e703b67	0.2346016
1	0x3dafbfa0	0.085814714
2	0xbe958755	-0.29204813
3	0x3e44894d	0.19193001
4	0xbde45af6	-0.11150162
5	0x3e42c174	0.19019109
6	0x3e2017a2	0.15634015
7	0xbe38be5c	-0.18041366
8	0xbe26b62a	-0.16280428
9	0xbce02839	-0.02736293
10	0x3ea30017	0.31836006
11	0xbea41077	-0.32043812
12	0x3e23e446	0.16005048
13	0x3b00093d	0.0019536756
14	0x3e18388a	0.14865318
15	0xbc30dfb4	-0.0107955225
16	0xbeb73922	-0.35785776
17	0xbcb60606	-0.02221967
18	0xbeb24bf4	-0.34823573
19	0xbdd65dbe	-0.10467099
