main/continuous_time_model/Navier-Stokes/parameters_checkpoints/Model_parameters.pth (torch, 73166 bytes, 12 tensors)

layers.0.weight f4 [64, 3]
000000 91 63 16 bf 45 96 a8 3e c6 7d 9b be 8e bf eb be
       -0.58745676 0.32927147 -0.30369395 -0.46044582
000010 e2 c3 3f be 21 78 c4 be e6 54 b7 3d f3 7a 21 bf
       -0.18727067 -0.383729 0.0895174 -0.6307823
000020 9f f3 eb 3e f2 11 37 3d 61 1a 7d 3e 3c 1a 16 bd
       0.46084306 0.04469485 0.24717094 -0.036646113
000030 1a a9 04 3f 49 eb 27 3e b7 91 e5 be fe c6 65 bd
       0.5182053 0.16398348 -0.44837734 -0.056097977
000040 b2 a6 3c be f2 b8 20 3c 4f e2 46 3e 87 4d 1b bf
       -0.18422964 0.009809719 0.19422267 -0.6066517
000050 70 4d da bc f3 ab a6 bd 66 b8 42 be 6f 9a 8f bc
       -0.026648253 -0.081382655 -0.19015655 -0.017529694
000060 f8 27 e9 be 20 4e 31 3e fa 02 0a be 6f 59 b3 3d
       -0.45538306 0.17314959 -0.13477698 0.087572925
000070 c1 5a ad be 3c a8 85 bc 74 72 c0 3d 05 dd 64 3f
       -0.33858302 -0.016315572 0.0939683 0.8939975
000080 a1 91 d1 3d 58 a6 2e 3f 44 99 a5 3d 79 d9 f1 be
       0.10232855 0.6822257 0.08085874 -0.4723623
000090 54 5f 4d 3f bc f0 cd be e1 3b 3b bf e6 64 23 bf
       0.80223584 -0.40222728 -0.7313824 -0.63825834
0000a0 8c ae cb 3e ed 27 8c 3c 6f f3 90 3e ef 9b 41 be
       0.39781606 0.017108882 0.28310725 -0.1890714
0000b0 1c 44 b4 bc 81 df 27 3e 6c fb d7 be 10 04 a5 be
       -0.022005133 0.16393854 -0.42184007 -0.32229662
0000c0 25 b3 24 bf 8d 87 15 3f 04 02 45 3d 2c ab b8 be
       -0.6433585 0.5840996 0.048097625 -0.36068094
0000d0 aa 4a b9 be e9 45 11 3e 8a 08 62 be a7 f3 d9 be
       -0.36189777 0.14186825 -0.2207357 -0.42568704
0000e0 d6 8a af 3e 4f 97 fb be de fb 53 be 6e b5 b8 3d
       0.3428561 -0.49138877 -0.20701548 0.0901898
0000f0 82 43 9e be 5d 81 bc 3c aa a3 9a 3e e9 58 c7 3e
       -0.3091088 0.023010904 0.3020299 0.3893502
000100 5d 00 52 bf 0c 85 93 3c 06 c3 9f 3f f0 12 a8 3e
       -0.82031804 0.018007778 1.2481391 0.32826948
000110 fe 8f 87 3d 66 c6 6c 3f 08 54 80 be 9b b1 81 3f
       0.06619261 0.9249023 -0.2506411 1.0132326
000120 24 60 b3 be b3 95 a0 3e ed 39 42 3e 82 b8 ff be
       -0.35034287 0.3136421 0.1896741 -0.49945456
000130 08 8a d6 bd 39 fe eb 3e 95 cd 16 bf 73 7c 14 3f
       -0.10475546 0.46092394 -0.58907443 0.58002394
000140 3c 2d cc 3e ae 0f d4 be 3f 1e 29 bf ee 45 c2 3e
       0.3987826 -0.41418213 -0.66061777 0.37943977
000150 a5 d8 18 3d 20 46 d3 bd 28 aa a4 bd ea 13 fc be
       0.037315983 -0.1031611 -0.08040267 -0.49233943
000160 24 1e c7 3e 59 8a ad be bb e3 88 3d 2b b9 14 bf
       0.38890183 -0.33894613 0.06684061 -0.58095044
000170 12 ec a0 be 2c 63 d0 be 76 80 61 bf 12 94 f6 3c
       -0.31430107 -0.40700662 -0.8808664 0.030099902
000180 8d 18 ce be 28 47 06 3f f7 c2 dc bd 35 9c cb 3e
       -0.40253106 0.52452326 -0.10779374 0.39767614
000190 03 f4 89 3e ce c8 a9 bd 1e fa 25 bf ba 02 bb bc
       0.2694398 -0.082902536 -0.64834774 -0.022828449
0001a0 84 ae f7 3c 04 71 98 be 5a f8 6d 3d 46 55 5e 3e
       0.030234583 -0.29773724 0.058098175 0.21712217
0001b0 5a cc 8a bd e8 50 55 3e c1 49 52 3e 18 96 24 3e
       -0.06777258 0.20831645 0.20535947 0.16072881
0001c0 dd ed 2f 3f 0f 1b b8 be 9e 4c da 3e 62 8b 36 bf
       0.68722326 -0.35958144 0.4263658 -0.7130643
0001d0 ca 4a 01 bf b9 58 dd 3e f5 c7 a5 be 17 22 e7 be
       -0.50504744 0.43231753 -0.32379118 -0.45143196
0001e0 f4 af 19 3e f2 05 d5 3e 00 c8 81 be ff 74 e3 3e
       0.15008527 0.41606098 -0.253479 0.44425198
0001f0 3b 53 fa 3e 23 f1 3a be 25 df 28 be ee 37 c0 be
       0.48891625 -0.18256049 -0.16491373 -0.3754267
000200 c7 a6 eb bc 12 43 c9 be 81 01 a2 3e f6 3e 8a 3d
       -0.02876605 -0.39308983 0.31641772 0.0675029
000210 13 9b ac 3e f7 50 1a be a2 c0 3c be 25 62 fd be
       0.33712062 -0.15069948 -0.18432859 -0.4948894
000220 b1 30 51 be 74 3e fd bd 23 43 31 be 15 4e 74 be
       -0.2042873 -0.123654276 -0.17310767 -0.23857911
000230 a6 42 9e 3d 1c 29 89 3f 60 15 a3 3e 8a e1 b1 3d
       0.07727556 1.071567 0.31852245 0.08685596
000240 fc c9 f0 bd 30 0b 14 bf ad be 22 3a 1b 71 19 3e
       -0.117572755 -0.5782957 0.00062082225 0.14984553
000250 69 10 7a be 47 0f ba bc fc e5 56 bd fd 1f 26 3d
       -0.24420322 -0.022712363 -0.052465424 0.04055785
000260 9e a9 79 be fe 6a 08 3c 12 d6 08 bf da 66 58 3d
       -0.2438111 0.00832629 -0.53451645 0.052832462
000270 8a 4f ff bd b3 c2 ed 3c 34 bb 06 3f 78 78 f6 3e
       -0.12466343 0.029023504 0.526294 0.48138785
000280 cc 13 08 bf 8c 73 a9 3c 98 9c 28 3f 35 14 bb 3e
       -0.5315521 0.02068498 0.65863943 0.36538854
000290 73 a4 d1 be 5e 2c 20 bf 16 16 36 bf f8 05 08 3f
       -0.40945777 -0.625677 -0.7112745 0.5313411
0002a0 d9 bb bf 3e 33 4b 3c bb a5 54 84 be 3f 9e 16 bd
       0.37448004 -0.0028731346 -0.2584583 -0.03677201
0002b0 e0 05 57 bf a7 73 b5 be 6b 44 0d be 8a fc 95 bd
       -0.8399334 -0.35439798 -0.1379563 -0.07323559
0002c0 9b a9 9e 3e ee 6c 31 3e 64 c7 f4 3e 4d 80 8f be
       0.30988774 0.1732671 0.47808373 -0.28027573
0002d0 12 b3 5d 3f 50 a4 83 be 01 6b 8e 3e 54 78 85 be
       0.86601365 -0.25711298 0.27816013 -0.26068366
0002e0 aa 5d a2 3e 27 0c e3 bd 9b b0 3f be a7 58 72 bf
       0.31712085 -0.11086302 -0.18719713 -0.9466652
0002f0 9c 2a 40 be ce fc 04 bf 5e 05 6f 3e 28 f9 b3 3e
       -0.18766254 -0.5194825 0.23341891 0.3515103

layers.0.bias f4 [64]
000000 a4 9e 81 3e f7 b7 92 bf d9 e7 af 3e 4b 03 cc 3e
       0.25316346 -1.1462392 0.34356573 0.39846262
000010 b8 d8 48 3f 7b 2f c1 3e b4 24 c9 3d de 49 eb 3e
       0.78455687 0.37731537 0.09821454 0.45954794
000020 42 40 2c 3e cf 29 4d bb 0c 7f b8 3e 8e b4 8b 3f
       0.16821387 -0.0031305437 0.3603443 1.0914476
000030 88 a2 8d 3e 0a a4 03 be 44 fc 0c bf 6b ac 36 3e
       0.27663064 -0.12855545 -0.55072427 0.1783921
000040 9d ca 1e be d3 9a 16 3e 5e f9 06 3e d5 a4 da be
       -0.15506978 0.14707498 0.13181064 -0.42703882
000050 2c 98 76 3f 16 ed 11 bf 49 b7 07 be 92 52 9a 3e
       0.96325946 -0.5700239 -0.13253511 0.3014112
000060 9d 0f 93 3e 8b fd 50 3f 26 28 82 bf 44 32 ce 3e
       0.2872285 0.81636876 -1.0168502 0.40272725
000070 dd 5e 3d 3f 06 df 35 3f c1 9b e2 3e ad 3f d4 bd
       0.73972875 0.7104343 0.44259456 -0.10363708
000080 f2 af 01 bf fc 32 7e be cd 9c 90 bc f5 0a 2d 3f
       -0.50659096 -0.24824136 -0.017652893 0.67594844
000090 af 28 93 be 46 da f3 3d e5 81 6c 3f 16 b4 23 bf
       -0.28741977 0.11906867 0.92385703 -0.63946664
0000a0 a7 69 74 3f d4 7c 4e be 8c 09 ea 3e a3 a2 46 bd
       0.9547371 -0.20164806 0.4571041 -0.048494946
0000b0 8c a7 f6 3e 2b c7 44 3f 9b 04 a5 be d3 0a 20 be
       0.48174703 0.76866406 -0.32230076 -0.15629129
0000c0 63 83 9a be 4e fb 1d bf 58 d6 01 3f ec e5 01 3f
       -0.30178365 -0.61711586 0.5071769 0.5074146
0000d0 ff af ae 3e 46 95 64 bf c3 8a b2 3f 11 b1 71 bf
       0.3411865 -0.89290273 1.3948597 -0.94410807
0000e0 cd 85 83 3e b0 07 1c 3e ea 60 99 bd fb b9 04 bf
       0.2568802 0.15237308 -0.07489188 -0.51846284
0000f0 c8 cf 22 bf 6c 88 0f 3f 81 ad d2 3e c6 91 e0 3e
       -0.635983 0.5606754 0.41147998 0.43861216

layers.1.weight f4 [64, 64]
000000 7a e6 62 bc d4 b8 ce bd 00 17 a3 3d 11 8f 19 3e
       -0.013848895 -0.10093847 0.07963371 0.14995982
000010 bb bb ab 3d ad 0e d1 bd e1 64 3d be 72 04 a9 bd
       0.08385416 -0.10207877 -0.18495513 -0.08252801
000020 1a e1 56 3b 0a 5f 7f be f8 25 24 bc e7 c9 9f bc
       0.003278798 -0.24938598 -0.010018818 -0.019505454
000030 aa f7 82 3d 55 cf 7d bd f6 61 88 be 0e 84 60 3e
       0.063948944 -0.061965305 -0.26637238 0.21925375
000040 90 80 0e 3d 76 66 a2 bd cc 66 06 3e 2c 2e 1f 3e
       0.034790576 -0.07929699 0.13125151 0.15544957
000050 b3 5e 94 bb 5d 67 39 be 24 04 8b 3b 8f 3f ff 3c
       -0.0045278906 -0.18105836 0.004242437 0.031158237
000060 45 4d 6d be e5 92 50 bd 33 f1 8a be d5 3e 04 3d
       -0.23174007 -0.05092134 -0.27137145 0.032286484
000070 9b fd 91 be 41 05 d6 bd 88 7d 4b 3e 7c 65 64 3e
       -0.28513798 -0.10450221 0.19872105 0.22304338
000080 cc 0a 07 be c8 19 4b be 98 9e ab 3c 7c a6 92 bd
       -0.13187712 -0.19834054 0.020949647 -0.071606606
000090 80 94 38 be ec 98 41 be 03 be 1d 3e 32 aa 6a 3e
       -0.18025398 -0.18905991 0.15404515 0.22916487
0000a0 e0 15 dd bd 73 93 57 be 99 5f 7f 3d 1e 80 14 3f
       -0.10795188 -0.21052341 0.06234703 0.5800799
0000b0 fa 4d 36 3e e8 b4 e1 3c 69 08 4f 3e f8 58 18 3c
       0.17803183 0.027552083 0.20218052 0.009298556
0000c0 cf 8f 87 3d a9 f8 bf bd ba 94 3d 3e 95 ee 39 3e
       0.06619226 -0.093736 0.18513766 0.18157418
0000d0 52 57 5d 3d f0 00 42 bd 7f 29 bc 3c 75 23 ff 3d
       0.054038353 -0.047364175 0.022969006 0.12457935
0000e0 60 fe ee bb 41 0e 2c bd 80 ac 9b 3b ab bd 7e bc
       -0.0072935075 -0.04200578 0.004750788 -0.01554815
0000f0 7f 2e 84 3e 4e 48 25 3d c2 74 78 3d 35 1a 0d 3d
       0.25816724 0.04035216 0.060658224 0.03444882
000100 62 62 80 bd 73 1b 6d bd 95 b8 9b bd 0c e9 f6 3c
       -0.06268765 -0.057887506 -0.076035656 0.030140422
000110 e3 41 cf bd 15 62 24 be d4 45 81 bd ce 13 3c be
       -0.10119989 -0.1605304 -0.06312147 -0.1836693
000120 06 6e 16 bd 76 1f ad 3c 38 90 62 3d 44 36 6f 3c
       -0.03672602 0.021133166 0.05531332 0.01460034
000130 c2 af 3b be 4d 79 53 bd b4 cb 68 3d bc d7 18 bc
       -0.18328765 -0.051629353 0.05683489 -0.009328779
000140 d7 8d 9a 3d 60 0a 2a bd 74 84 f8 bc 7f 3b 00 bd
       0.07546585 -0.0415138 -0.030336596 -0.03130674
000150 9b 71 62 3e 7c 77 06 be d1 5c 3c bd 97 af ac 3b
       0.2211365 -0.13131517 -0.045986954 0.0052699554
000160 b0 44 57 3e 86 6e 1f bd 4c ef aa bc 95 b5 ba 3d
       0.21022296 -0.038923763 -0.020866059 0.09116665
000170 d8 ad 1e bc e7 0d 9f 3d d1 4c f2 3d 1f 43 86 3d
       -0.009685002 0.077663235 0.11831058 0.06555771
000180 38 2b 2e bd 24 3e 04 3e a5 e7 9b bd e7 50 96 3e
       -0.042521685 0.1291433 -0.07612542 0.293586
000190 d1 a5 1d 3e bc a6 74 3b d2 cd cf bd 43 53 6b 3d
       0.15395285 0.0037330827 -0.10146679 0.05745245
0001a0 e9 2f 46 bd a0 6f f7 bd 21 c5 d2 bd 48 cd c7 3d
       -0.048385534 -0.12081838 -0.102915056 0.09755951
0001b0 ce 2a 63 3c b4 10 91 bd ed fa 89 bd 45 a3 b1 3d
       0.013865186 -0.07083264 -0.067373134 0.08673719
0001c0 d6 3a 46 be a9 49 f9 b8 f8 78 71 bd e6 09 9c bd
       -0.19358382 -0.000118869655 -0.058953255 -0.076190755
0001d0 b3 f7 d1 bd 27 f1 0a 3e 44 88 8b 3d 45 97 0d 3e
       -0.10252323 0.13568555 0.068131 0.13827236
0001e0 1e 73 3f bc e6 09 c4 bc 66 09 dd bb 2a 88 9d 3c
       -0.011685161 -0.023930501 -0.006745505 0.019229967
0001f0 3e 80 b7 3d c5 2a 0d be 87 1f 81 bc e0 3c 16 3e
       0.08960007 -0.13785847 -0.015762104 0.1467166
000200 3e 2e 77 3c f3 5e f7 3b a9 d8 18 3d 2e 93 51 be
       0.015086709 0.0075491606 0.037316 -0.20466301
000210 83 2b b4 bd 55 0a 94 3c 84 2c 87 3c 6b cf 1c 3d
       -0.08797362 0.018071333 0.016500719 0.038283747
000220 09 5b 03 3d a7 f4 0a 3e 0c 8e c5 bd 29 d5 a8 3b
       0.03206924 0.1356989 -0.09646234 0.005152364
000230 60 a9 44 bd 60 dc a9 bd 4c 6f 2a bd 26 7d 77 bd
       -0.04801309 -0.08293986 -0.041610047 -0.060422085
000240 d8 c5 3a bd 6a 8b 2d be 94 9f 30 3c 66 08 83 bc
       -0.045598835 -0.16947713 0.010780234 -0.015995216
000250 2f c1 b5 bd f8 f1 90 bd 79 d9 be bd 43 cb 29 3c
       -0.088747375 -0.07077402 -0.09318823 0.010363403
000260 0c 1a 99 bd bc e5 05 3e 96 0c 03 be 34 b5 c6 3d
       -0.07475671 0.13075918 -0.1279777 0.097025305
000270 93 77 ac bd c4 50 10 3e e0 6c c0 bd c5 26 28 bd
       -0.084212445 0.1409331 -0.09395766 -0.0410526
000280 6e 2b 34 3d 52 f3 9c 3d 75 83 3b 3d 59 49 0f be
       0.04398673 0.07663597 0.045779664 -0.13992824
000290 6a cc e4 3d a0 84 0f be 02 74 c3 bd aa c8 6a bc
       0.111718014 -0.14015436 -0.09543611 -0.014330069
0002a0 87 b5 7d 3d 52 4b 3e 3d 28 69 02 bd ea 67 a6 bd
       0.061940696 0.04645855 -0.031838566 -0.08125289
0002b0 56 84 b3 3d 19 f8 3f bc c4 0b 2b 3e bd 1f 1a be
       0.087654755 -0.011716866 0.16703707 -0.1505117
0002c0 cf 3d 40 3e 30 69 36 3d 19 51 01 bd 15 d5 08 bd
       0.18773578 0.04453391 -0.03157148 -0.033406336
0002d0 35 b4 df ba 3b 51 a6 3d 72 9e 82 3d f3 85 9b 3d
       -0.0017067256 0.08120962 0.06377877 0.07593908
0002e0 79 6d 78 bd 5d 65 9c 3c 36 9e 06 3e 73 01 d8 bd
       -0.060651276 0.019091303 0.1314629 -0.105471514
0002f0 50 59 18 be 5e 98 cb bd 39 73 36 bd 57 77 16 be
       -0.1487782 -0.09941171 -0.04454348 -0.14693962
000300 5c 8e cb 3b cd e1 d3 3d 6e 6c 37 be 81 4c da 3d
       0.006212039 0.103458025 -0.17912456 0.10659123
000310 e8 82 1f be aa a9 9f be 85 6a 48 3e 4d 49 32 bf
       -0.1557728 -0.3118413 0.19571884 -0.696431
000320 4e 39 08 be 27 5e 1e bf f1 2b 8d be ef 7b c6 3d
       -0.1330311 -0.61862415 -0.27572587 0.09691607
000330 24 48 d2 be 1d e6 0f be 6e 43 a8 bd 47 06 00 3e
       -0.41070664 -0.14052625 -0.08215986 0.12502395
000340 1a 6b 63 be 5e 10 a2 be 23 41 12 3f 63 02 0a bd
       -0.22208825 -0.31653112 0.5713064 -0.033693682
000350 5e 92 0c 3e 2c 55 b8 3e 3d 3c 8e bc 47 c8 a2 3d
       0.1372771 0.3600248 -0.017362708 0.07948356
000360 14 46 85 3e 21 46 01 3f df 96 8d be 27 50 3b 3f
       0.26030028 0.50497633 -0.27654168 0.7316918
000370 97 01 9c be 18 68 84 3e 9b f5 e0 3e ee 80 cc be
       -0.30469963 0.25860667 0.43937382 -0.39942116
000380 56 2f 1d 3e 1d 40 53 bd 52 ab f5 3c ba fe 40 3f
       0.15350088 -0.051574815 0.029988918 0.7538868
000390 ad f7 30 be 0b d7 c4 be fd 5b 82 be 15 cf 58 bf
       -0.17281981 -0.38445315 -0.25460806 -0.8469098
0003a0 b8 9e 28 3d 47 ff 82 3e f7 75 00 3e bb f4 10 be
       0.04116699 0.25585386 0.12545 -0.14155857
0003b0 8f 86 0b bd 41 e5 76 3d 02 38 03 bd b3 53 d7 3c
       -0.034063872 0.060277227 -0.032035835 0.026285028
0003c0 db 34 a5 bc b5 f6 7c bf 6b 1d fe 3e 11 c8 db 3d
       -0.020166805 -0.98813945 0.4963182 0.10731519
0003d0 e6 4f f4 be c2 45 f5 3d 73 f8 a2 3d 2b b6 bf be
       -0.47717208 0.11976196 0.07957544 -0.3744367
0003e0 9b 01 1f 3b f0 83 28 3e 93 02 44 be 37 91 9b be
       0.0024262432 0.1645658 -0.19141607 -0.30384228
0003f0 d6 3c 10 3d 0c bc ca 3e 42 2b a8 bd e3 bb 14 bd
       0.035214268 0.39596593 -0.08211376 -0.036311995

layers.1.bias f4 [64]
000000 10 0b c1 bb db 02 dd bd 4e 58 02 bd 57 4e c0 3d
       -0.0058912113 -0.1079156 -0.031822495 0.09389942
000010 8f cb ee bd de 35 29 3e 17 a1 3c 3d 5a 12 b4 3d
       -0.116599195 0.16524455 0.046052065 0.08792563
000020 cc 92 c1 3c 3b a4 2e 3d 14 43 65 3d 66 43 ff 3d
       0.023629569 0.04263709 0.055972174 0.12464027
000030 6c 64 04 3d 2f 1f 92 3d 1e b9 59 3c e6 5c 06 3e
       0.032322332 0.07134854 0.013288764 0.13121375
000040 61 7c ba 3d 51 4e 2f 3e 6e 1d cc bc 68 75 ee 3c
       0.09105755 0.17119719 -0.024916377 0.029108718
000050 7e 40 0f 3e c9 b7 25 3d d8 af e3 3b 93 b9 45 bd
       0.13989446 0.040458474 0.0069484524 -0.04827268
000060 1d 24 aa bd 2c 58 22 3e c1 aa 8f 3d 62 aa 84 3d
       -0.08307669 0.15853947 0.070149906 0.064778104
000070 f5 8d 9a bd 8b 78 27 3d 0c 7b 7e 3d ec 2f ca bc
       -0.075466074 0.040886443 0.062129065 -0.024681054
000080 b2 c1 8a bd 39 eb ad bd 00 a2 94 bd 85 d0 d5 3b
       -0.06775226 -0.08492131 -0.072574615 0.0065251016
000090 0f 05 26 bc 69 6a df bc dc 5e ce 3d 21 e9 17 3d
       -0.010133042 -0.02727242 0.10076687 0.037087563
0000a0 e5 83 5c 3d 25 ac 83 bd b6 40 71 bc 1b b0 6f bd
       0.053836722 -0.06429318 -0.014724901 -0.058517557
0000b0 c0 26 90 bc ee 3f 94 bd 22 e6 85 bd 4c 69 87 3d
       -0.017596602 -0.07238756 -0.06538035 0.06611881
0000c0 24 10 0f 3e 91 8e de 39 c2 b9 8f bd 97 0d 2e 3e
       0.13971001 0.0004244936 -0.07017852 0.16997372
0000d0 26 db e1 3d 28 f5 f2 3d 95 7e 02 bd 54 cd db 3d
       0.11028127 0.11863166 -0.031859 0.107325226
0000e0 be f2 04 bd 79 46 ea bd 04 2d 6a 3c ad 80 24 bd
       -0.03245806 -0.11439223 0.014292959 -0.040161777
0000f0 aa 56 ed bd 0e d5 76 bd 33 05 6e ba de ca e8 3d
       -0.115887955 -0.06026178 -0.0009079754 0.11366819

layers.2.weight f4 [64, 64]
000000 06 91 17 3e 0c 26 1a be ac a8 e0 3d 38 3f e1 bd
       0.14801416 -0.15053576 0.109696716 -0.10998386
000010 b6 61 f6 3c 39 9e 16 bd da e4 a2 bd 7c 92 45 bd
       0.03007589 -0.036771987 -0.07953806 -0.0482354
000020 14 25 54 bd d2 06 a5 bd d9 ef e4 3c 6b b6 26 3d
       -0.051793173 -0.080579415 0.0279464 0.04070131
000030 32 40 36 be 89 f8 7c 3d 72 c8 3b 3d bd 7c 86 3d
       -0.17797926 0.06176046 0.045845456 0.06566761
000040 82 94 b7 3e 42 a4 56 3d be 68 b5 3d e4 c7 c4 bd
       0.3585549 0.052402742 0.088578686 -0.096084386
000050 fc bd c5 bd ec c1 d6 bd 7a 40 40 3c 57 7d 27 3e
       -0.09655377 -0.104862064 0.011734122 0.16356407
000060 ad 76 72 be 5f d9 13 3e 4a a2 22 3d 3a a0 64 be
       -0.23678084 0.14438389 0.039705552 -0.22326747
000070 41 38 22 be fe 0b 87 3c 57 83 15 3d 7e 7e 3c bc
       -0.15841772 0.01648521 0.03650221 -0.011504767
000080 73 6c 0d be 87 48 10 3e 48 d9 08 be 0d b9 e2 bd
       -0.13810901 0.14090167 -0.13364136 -0.11070452
000090 5a 1d 8f bd 0e 4d 3d 3e 62 cf 35 3e 93 e6 da bd
       -0.0698802 0.18486425 0.17754892 -0.1068851
0000a0 be 20 ca 3d c5 16 36 bb 10 47 68 3e 25 4a cd 3c
       0.09869526 -0.0027784568 0.22683358 0.025059769
0000b0 79 ca f3 bd 9b f6 4a bd 34 56 4c 3e c5 02 c1 bd
       -0.11903853 -0.049551588 0.19954759 -0.09424356
0000c0 04 5f ab 3d 20 56 47 3e d6 5a 8b bd 33 69 0a bd
       0.08367732 0.19466448 -0.06804435 -0.033791732
0000d0 47 15 d4 3d b5 df 66 bd 13 49 20 3d e8 81 36 be
       0.10355621 -0.056365687 0.03913219 -0.17822993
0000e0 18 cc 82 3e 9b 2d bb bc ca ce 9e 3c 36 ac 03 3e
       0.25546336 -0.022848895 0.019385714 0.12858662
0000f0 b7 ed a1 3c 03 c1 12 be 1e 4a 89 3d ad 98 07 be
       0.019766672 -0.1433144 0.0670359 -0.13241835
000100 0e fd a0 bd 49 9e 84 bd 87 67 21 be f0 82 a3 3d
       -0.07860766 -0.06475503 -0.15762149 0.07983959
000110 e6 4c 0a 3d 60 ec f4 3c f8 b0 e2 3d 5d 5b 22 3d
       0.033764742 0.029897869 0.1106891 0.039637912
000120 fe 8b ed bb d9 2d 9b bd e7 78 99 bd 83 3f b1 bc
       -0.0072493544 -0.07577104 -0.074937634 -0.02163673
000130 26 97 dd 3d 9f b9 12 3e ed b6 e0 bd b3 26 59 bd
       0.10819845 0.14328621 -0.1097239 -0.053015422
000140 75 87 af be 96 ee 3b be 0a f5 83 bd ff 23 93 bd
       -0.34283033 -0.18352732 -0.06443222 -0.071846
000150 0f 21 ab 3d df 19 d6 3d 6d 7e 84 bd 86 38 1b be
       0.08355915 0.10454153 -0.06469426 -0.1515828
000160 f1 f3 c3 3d 86 ae 92 3c b3 3e 02 3e 9e 3c 2e bd
       0.095680125 0.017905485 0.1271923 -0.042538278
000170 37 7c 81 3d e9 49 2d 3b 64 ee 74 bd fc 44 78 be
       0.0632252 0.002644176 -0.05979766 -0.24245065
000180 f9 90 38 bd 8c 07 a2 bd b2 d5 50 3d 84 90 83 ba
       -0.04506013 -0.07911596 0.050985046 -0.0010037576
000190 51 9f a1 3d 7e ea 74 be be 33 83 3d 4e b3 aa 3c
       0.07891715 -0.23917577 0.064063534 0.020837452
0001a0 79 62 a4 bd c4 ee 69 3e da 1e 6a bd e7 97 dd 3d
       -0.08026595 0.22844988 -0.05715833 0.10819989
0001b0 51 d1 e8 3d a2 bc 53 bd 1f 5a f3 3c e2 82 7f bc
       0.11368049 -0.051693566 0.029706059 -0.01559517
0001c0 8c 89 2c 3c 77 23 11 be 10 ad 0b 3e b1 f5 5e bd
       0.010530841 -0.14173685 0.13640237 -0.05443353
0001d0 14 e6 85 3d 72 9c 29 be d6 12 41 bd a1 96 d6 bd
       0.065380245 -0.16563585 -0.047137104 -0.10477949
0001e0 84 7b e3 bd c4 d7 25 bb 06 5c 33 bd 67 53 30 bc
       -0.11107543 -0.0025305608 -0.043788932 -0.010762072
0001f0 e3 87 a0 3c eb 01 4e 3d 18 81 10 be 84 be 22 3d
       0.019596046 0.050294798 -0.14111745 0.03973247
000200 56 34 75 3d 37 96 3e 3e bf 88 a3 bd 7e f8 0c 3e
       0.059864365 0.1861199 -0.079850666 0.13766667
000210 3e 98 90 3d 8f 1d 5b 3d c0 7a a2 3d d1 5c 86 bd
       0.07060288 0.053494986 0.07933569 -0.06560672
000220 60 2d 33 3e d8 4f 07 3e 58 ce b0 bd 0e e3 4b bb
       0.17497778 0.13214052 -0.08633107 -0.0031110677
000230 f3 10 c8 3d 1e 9c b9 3c 8e 8a 0b 3e 2f 99 e8 3c
       0.09768858 0.02265745 0.13627073 0.028393356
000240 ca 8a 4a bd d8 00 0e be bf 93 9b 3d ca 52 58 3d
       -0.049448766 -0.1386751 0.0759654 0.05281333
000250 c1 42 c7 bc 3f c0 82 3a c1 69 66 3d 4a 28 bb bd
       -0.024323823 0.0009975507 0.0562532 -0.09138544
000260 10 40 67 3d 6f 6f 3a bd dc 59 d5 bc bf 90 46 3d
       0.05645758 -0.045516428 -0.026043825 0.048477884
000270 bf ed 02 be ff c2 01 be 45 5d 89 3c 1c ea ab 3d
       -0.12786005 -0.12672041 0.016768107 0.08394262
000280 0e 02 fa 3d 68 33 d4 bc b3 c7 4b 3d a5 27 62 3e
       0.12207423 -0.025903419 0.049750995 0.22085436
000290 34 54 11 3e 8b 2f 18 be 50 47 8a 3c 25 81 57 3d
       0.14192277 -0.14861886 0.016879708 0.052613396
0002a0 69 25 aa 3d 16 d0 3c 3e 21 cc d5 3d 88 06 de 3c
       0.08307917 0.18438753 0.10439325 0.027102724
0002b0 91 8a 02 be 3b c2 aa 3d 5d dc d5 bd 35 00 e2 3d
       -0.12748171 0.08337828 -0.104424216 0.11035196
0002c0 bf 95 d6 3c 2b 73 9f bc bc 7f 35 3c 8c ac 14 bd
       0.026194451 -0.019464096 0.0110778175 -0.036297366
0002d0 ba 8c ef 3d dc e9 9d 3d 18 93 c8 bd 61 ba ba bd
       0.11696763 0.07710621 -0.09793681 -0.0911758
0002e0 30 1d 75 bc 58 80 a5 3b 14 60 ae 3d 29 78 68 bc
       -0.014960572 0.0050507 0.08514419 -0.014188805
0002f0 a9 70 29 3d 54 4a 11 3e e5 ec 12 be ca 3b ab 3c
       0.041367207 0.1418851 -0.1434818 0.020902533
000300 31 f4 05 3e ee 97 4c 3d 6f 9e f3 3d f7 39 2c 3e
       0.13081433 0.04994958 0.11895453 0.16818987
000310 4b bf 0c be 9d 92 00 be a1 18 60 3e 91 d2 88 bb
       -0.13744847 -0.12555929 0.21884395 -0.004175492
000320 3e 44 2f bd 00 55 b1 3d 73 8a 0c be d0 94 d1 3d
       -0.04278969 0.086587906 -0.13724689 0.10233462
000330 01 ef 08 be 24 3e 07 3d 70 0b 12 3e 7d c5 89 3d
       -0.13372423 0.033018246 0.14262176 0.06727121
000340 dd e4 c1 3e 89 bd 9c bd 83 60 b2 bd 97 79 3a bd
       0.3786992 -0.076533385 -0.087098144 -0.045526113
000350 d3 fc 20 3e 00 2c d3 bc ff 1b 04 3e b7 31 a8 3c
       0.15721445 -0.025777817 0.12901305 0.020531518
000360 b9 d3 26 bd e3 88 9b 3d d3 18 8a 3c 4f 44 74 bd
       -0.04072926 0.075944684 0.01685754 -0.059635457
000370 64 a3 a0 bd dd 38 c4 bd 72 4c b6 3d 4d 8a 3c bc
       -0.07843664 -0.09581158 0.089012995 -0.011507583
000380 60 c8 f0 bd 01 70 5f 3d 81 a5 c2 bd 0a d4 0f be
       -0.117569685 0.054550175 -0.095042236 -0.1404573
000390 55 66 12 3e 63 88 80 bd e6 fe 41 be bc 78 b1 bc
       0.14296849 -0.06276014 -0.18944892 -0.021664016
0003a0 60 ee e5 bd 92 03 4a be 72 06 a4 bc 2f d6 04 3d
       -0.11227107 -0.19727924 -0.020022605 0.032430824
0003b0 8d 91 69 3c 27 24 15 3e 8e b5 f0 bd cf 3e da bd
       0.014255893 0.14564572 -0.11753379 -0.10656511
0003c0 b3 78 d4 3d fe a6 1b 3d 10 d5 df 3b fd ec cd bd
       0.10374584 0.038001053 0.006830819 -0.100549676
0003d0 2a ca d4 3d d7 b1 c5 3d 61 8c a3 3c 5d 9c c9 bd
       0.10390122 0.09653061 0.019964399 -0.09844277
0003e0 d0 d9 a2 3d a0 d1 8f 3a 6c 3c 18 be 99 8d 60 bd
       0.07951701 0.0010972507 -0.14866799 -0.054822538
0003f0 e7 cd 69 be d3 9b a5 3c c9 c5 50 bd 14 56 7a bd
       -0.22832452 0.020215904 -0.050969873 -0.061117247

layers.2.bias f4 [64]
000000 be 06 c5 3c 81 a8 96 3c 97 06 bc 3b 2c 5d 79 bd
       0.024051066 0.018390896 0.0057380903 -0.06087987
000010 c3 7d 52 3a 88 9a 35 bc c7 8a d7 bd 2e 9e 99 3d
       0.0008029604 -0.011084206 -0.105245166 0.075008735
000020 63 ef d0 bd 05 0b f0 bd 8e 58 db bd 15 c8 4a bd
       -0.102019094 -0.11720852 -0.1071025 -0.04950722
000030 6c c2 f0 3c 3e 77 6a 3d 58 7d 02 3e 24 18 80 bd
       0.029389583 0.057242624 0.12743127 -0.062546045
000040 28 c6 a3 3d d3 65 6e bc 94 8f b6 3c f7 62 42 3d
       0.0799678 -0.014550644 0.02228526 0.04745766
000050 47 d2 0d 3e a0 0a 81 3d c9 71 2d 3d e4 ac e5 bc
       0.13849746 0.06300855 0.042344842 -0.028036542
000060 9a 9b a6 bd df f3 0a be 68 80 24 bd dc 5d 82 3d
       -0.081351474 -0.13569592 -0.04016152 0.063655585
000070 e7 bd b4 3c 9a 7d 1d 3d 2c 3c 3b 3c 67 4a 1d bd
       0.022063209 0.03844986 0.01142792 -0.038401034
000080 82 9b 3c bc 05 64 9b bd fd 88 cf 3d ff 4a a1 3d
       -0.011511685 -0.075874366 0.1013355 0.078756325
000090 25 58 f0 bd de 1f cd bd 4e 38 20 3e 2f 32 ae bd
       -0.11735562 -0.10015844 0.15646479 -0.085056655
0000a0 27 66 81 3c 5e 09 ed 3c 13 2a f1 bd 46 e0 45 3d
       0.01579578 0.02893513 -0.11775603 0.048309587
0000b0 a6 a4 05 3e 3c 19 de 3d 6d f9 a5 3b 92 cc 64 3d
       0.1305109 0.10844657 0.0050651343 0.055859156
0000c0 e8 d3 51 3a 5a 31 a5 bd 7e db 8f 3d d7 03 3c bd
       0.0008004294 -0.08066054 0.07024287 -0.0459021
0000d0 30 c5 98 bc 4d 13 81 3d 1e df b5 3d ab dc 97 be
       -0.018648714 0.063025095 0.08880447 -0.29660544
0000e0 3e 66 dc bd 01 62 68 bd ad ff a5 3d a7 2e a1 3d
       -0.10761689 -0.05673409 0.08105407 0.07870226
0000f0 34 e7 cc 3d 9e 1b 02 bd 1c 55 b7 3d 0c 7a 24 bc
       0.10005036 -0.03176462 0.0895178 -0.010038864

layers.3.weight f4 [64, 64]
000000 5d 62 a0 bc aa f0 d9 3d f4 63 8f b9 82 ca 0e 3d
       -0.019578153 0.10641606 -0.00027349556 0.034861095
000010 fa 24 a4 bd a5 36 cd 3d e2 84 87 3d bf 0e 56 be
       -0.08014865 0.10020188 0.06617142 -0.20904063
000020 b0 10 2d 3e 18 c8 8c bd bc 01 41 3e aa 1f dc bc
       0.16900897 -0.06874102 0.18848318 -0.026870567
000030 53 0a e1 3c 4d 96 23 3e 23 b0 3e be a6 4a 0d be
       0.027470743 0.15975304 -0.18621878 -0.13798007
000040 52 48 bd bc 96 03 97 3d 6e 1c 15 bd 22 d4 cf bd
       -0.023105774 0.07373731 -0.036404066 -0.10147883
000050 27 d3 85 3e dc f0 a3 3d 3c d2 de bd 98 87 a2 3d
       0.2613766 0.08004925 -0.10879943 0.07936019
000060 00 7f 15 be db 53 31 be b6 1a aa 3d 38 b9 f1 ba
       -0.14599228 -0.17317145 0.08305876 -0.001844204
000070 05 67 0b 3d ef ed 46 3e 81 f0 40 3e 4f 05 46 3d
       0.034033794 0.19426702 0.18841745 0.048344906
000080 3c c2 51 be 25 71 34 be 63 b3 6c 3d c2 ef 01 bd
       -0.20484251 -0.17621286 0.057788264 -0.03172279
000090 3e 16 81 3d 72 a9 0b bd 87 7c 09 be 61 a3 e0 3d
       0.063030705 -0.034097143 -0.1342641 0.10968662
0000a0 33 44 8c be 2d b8 c9 3c 0d 2f 0e bd 06 4b d3 3d
       -0.27395782 0.024623955 -0.03471284 0.10317044
0000b0 8e d1 58 bd 02 e8 aa bd b9 0e 69 3c cd 04 ad bd
       -0.052934222 -0.08345033 0.014224702 -0.08448181
0000c0 f8 28 55 3d 71 8e 4a be 91 96 ff bd 02 66 15 3e
       0.052041024 -0.197809 -0.1247989 0.14589694
0000d0 24 64 55 3e d8 98 1a be 06 40 d8 bd fd 9d bc bd
       0.20838982 -0.15097368 -0.105590865 -0.092098214
0000e0 e6 d6 3a 3d bf 78 18 3e 3a 4f 0c be 20 26 34 be
       0.0456151 0.14889811 -0.13702098 -0.17592669
0000f0 24 88 ad 3c e1 dc fd 3c e8 af fe 3d 44 cf 86 bd
       0.021183081 0.030989112 0.12435895 -0.065825015
000100 4a 19 29 be c3 9b 6b bc 87 e5 00 be 4c e4 f8 bd
       -0.16513553 -0.014380398 -0.12587558 -0.12152919
000110 1f 54 fa bc 3c 3b 6e be b8 85 5c bc 82 6c 8d 3d
       -0.03055769 -0.23264784 -0.013459615 0.06905462
000120 57 9d 0c bd 52 22 37 bb 14 59 0c ba 45 b4 cd bd
       -0.03432974 -0.002794404 -0.000535385 -0.10044149
000130 68 3f c0 3d 5b 56 9b bc de 26 59 3c ea 44 d2 3d
       0.09387094 -0.018962076 0.013253896 0.102670506
000140 9f bd f9 bb d8 a1 29 3e 8c fb 1a 3d 1d b4 63 3d
       -0.0076214815 0.16565645 0.03783755 0.05559169
000150 3e 0b 29 3d 40 47 d1 bd a2 27 8d 3d 3a 9a ad bd
       0.041270487 -0.10218668 0.06892325 -0.08476682
000160 68 bb 45 3e b7 c0 12 3e 7b ef 4f 3e 65 83 8f 3d
       0.19309771 0.14331327 0.20306198 0.070074834
000170 19 56 dd 3d 34 72 bd bd f5 5d 07 bd 18 87 2e 3e
       0.108074374 -0.09250298 -0.03304859 0.17043722
000180 f7 9d 98 3d 25 0c 85 3d 56 a0 41 be 84 b0 db b9
       0.074520044 0.06496457 -0.1890882 -0.0004190245
000190 18 10 09 3e a1 fe d0 3d 52 54 1a be e4 a6 30 3e
       0.13385046 0.102048166 -0.15071228 0.17251164
0001a0 72 84 37 be 4d 11 b3 bc 24 03 3e 3e 06 b6 a7 3d
       -0.17921618 -0.021858836 0.18555886 0.08189015
0001b0 83 c3 91 3d bb a3 33 3d ac 36 a8 bd 2a 43 1d bd
       0.07117369 0.043857317 -0.08213553 -0.03839413
0001c0 b5 66 f7 bd 16 f7 53 be 0b ab 37 bd 80 db 25 3d
       -0.12080137 -0.20699725 -0.044840854 0.040492535
0001d0 4b 24 ea 3d ed 96 4e bd 61 13 a0 3b f3 b5 53 bd
       0.114327036 -0.050436903 0.0048851226 -0.051687192
0001e0 c2 89 d7 3c 77 3c 87 3d bf 18 f2 bd 70 c3 86 be
       0.026310805 0.0660333 -0.11821126 -0.26320982
0001f0 a8 c0 ed 3d 5b 54 08 3d 56 39 b6 bd b8 ab 6b 3d
       0.11609012 0.033283573 -0.08897655 0.05753681
000200 d4 2a 41 3c 0c ab 63 bd 69 6e a3 3c fc 95 9e 3d
       0.011789996 -0.055583045 0.019950109 0.07743451
000210 20 28 3d 3e 49 1d 05 3e 80 b0 cb 3d fe 47 c9 bd
       0.18472338 0.12999453 0.09945774 -0.098281845
000220 d1 13 13 3d 0a d3 97 bd 99 4b a4 3c ff 00 ea bd
       0.03590757 -0.074132994 0.020055579 -0.11425971
000230 63 bf 54 3d a5 15 28 3e b5 0d 45 be 0b 2f 23 3e
       0.051940333 0.16414507 -0.1924351 0.15935914
000240 45 90 77 3d 6f 31 62 3c ff 0c 1a 3e e2 12 ff bb
       0.06044032 0.013805731 0.1504402 -0.0077842334
000250 14 ad cd bd bc f9 1d be bf 27 63 3e a3 cd 84 bd
       -0.10042778 -0.15427297 0.2218313 -0.064845346
000260 ce 65 25 be 26 27 2c be 7c 2d 98 bd 50 91 0f be
       -0.16152117 -0.16811809 -0.074305505 -0.14020276
000270 e4 a6 19 3c e4 ce 16 be ec cc 2d bd 22 97 0b be
       0.009378169 -0.1472736 -0.042431757 -0.13631871
000280 dc 3e aa 3d a6 90 e2 bd 08 45 81 bd a8 2b 46 bd
       0.08312771 -0.11062746 -0.06311995 -0.048381478
000290 ed 89 6f bd 9d 9d f9 3d ef 02 59 3e fe d3 e6 bd
       -0.058481146 0.121882655 0.21192525 -0.11270903
0002a0 8e 3c b0 bd 38 17 fc bd 37 c7 e9 bd f4 b6 30 be
       -0.086053 -0.12309116 -0.1141495 -0.17257291
0002b0 2d 7b 68 3e 35 da ed bd 4b ff 8b bd 54 89 33 bc
       0.22703238 -0.11613885 -0.06835803 -0.010958035
0002c0 de 4f 00 3d 6b c8 82 bd d2 a8 c5 3d 6d f4 31 3e
       0.031326167 -0.06385883 0.096513405 0.17378397
0002d0 c9 4f fc 3d ba 6d 22 3d 14 dd a8 bd c0 2b 0d 3e
       0.12319905 0.039655425 -0.08245292 0.1378622
0002e0 af bc 3f be 29 38 0d 3e 9f 06 a2 bd d6 86 1a bd
       -0.18724321 0.13790955 -0.07911419 -0.037726246
0002f0 b6 7b eb 3c 7b f5 1c 3e 5c e1 d4 bd 0f b1 06 be
       0.028745513 0.15328018 -0.103945464 -0.1315348
000300 db 62 56 3d 88 8a b7 3d 69 13 a6 3c 38 85 cf bd
       0.05234037 0.089619696 0.020272927 -0.10132831
000310 81 c1 d9 3d bd 20 ec bd 38 f7 51 3d fa 42 1e 3d
       0.10632611 -0.11529682 0.051261157 0.038638093
000320 d6 f0 36 3c 19 89 a6 3d 23 20 3f bd be 9a 0e 3d
       0.011165818 0.08131618 -0.046661507 0.034815542
000330 9b 9e ff bc 06 76 38 3d 43 6e 43 3e ad 12 d1 3d
       -0.031203559 0.04503443 0.1908503 0.1020864
000340 8a 86 b2 bd 80 37 5e 3d 4d 7d 17 3e 08 8b 52 bb
       -0.087170675 0.054252148 0.14793892 -0.0032126326
000350 ee f1 e1 3d 35 64 3e bd 92 e6 1f bd 9f b7 e4 3c
       0.110324726 -0.046482284 -0.03903825 0.027919589
000360 79 2b a0 3d 17 90 6a 3e a2 3d ff 3d cc 38 5c 3d
       0.07820792 0.22906528 0.124629274 0.053765103
000370 9c 7e bb 3c 26 41 ad 3d fb 4b 8c bd d2 6a d8 bd
       0.02288752 0.08459692 -0.068504296 -0.10567249
000380 13 ed af 3d e3 05 b4 bd d8 27 97 bd 83 51 b9 b9
       0.0859014 -0.08790185 -0.073806465 -0.0003534668
000390 1a d4 59 3d ff b9 2a 3d 76 0d 70 be f4 65 12 3e
       0.05318079 0.041681286 -0.23442635 0.14296705
0003a0 74 b6 c8 3d d7 c4 ae 3d 09 f1 09 3e 54 3d b6 3d
       0.09800425 0.08533638 0.13470854 0.08898416
0003b0 3b 85 f7 bd 48 12 05 bc 78 1a d2 bd 02 84 7c 3d
       -0.120859586 -0.008122034 -0.10258955 0.06164933
0003c0 29 a4 6c 3c 7c 30 eb 3c 67 7c 11 3e bc f9 12 be
       0.014443436 0.028709643 0.14207612 -0.14353079
0003d0 ed 28 e6 3d 2f 5f 28 be 52 66 26 be a5 40 05 3e
       0.11238275 -0.1644256 -0.1624997 0.13012941
0003e0 c7 cc 0b 3e e0 84 01 be b9 68 03 3e 22 31 2f be
       0.13652335 -0.12648344 0.12832917 -0.17108586
0003f0 3b e0 a3 bd 68 a9 01 bd 27 e4 02 3e 8c b1 9e 3d
       -0.08001753 -0.0316557 0.12782346 0.07748708

layers.3.bias f4 [64]
000000 7d 04 80 bd 44 d3 98 bb 84 9e 9e bd c9 67 37 3b
       -0.06250856 -0.0046638567 -0.07745078 0.0027985445
000010 38 50 19 3e 8a 79 46 3d 49 07 35 3d 1d 8a 6f bd
       0.14972007 0.048455752 0.0441964 -0.058481324
000020 1b 16 25 bd 75 cf 59 bd 09 c2 49 3e 62 17 e3 bd
       -0.040304285 -0.053176362 0.19702925 -0.11088444
000030 87 97 1f 3e 9c 7e e4 3d 69 9e 93 3d 92 ea 0f be
       0.15585147 0.11156961 0.07207949 -0.14054325
000040 02 06 00 be f9 e7 e2 ba 3d 63 00 3d 80 bd a6 3d
       -0.12502292 -0.0017311565 0.03134464 0.08141613
000050 fc 66 9d 3d 68 f0 03 3e a1 80 95 3d b8 4e c5 bd
       0.07685658 0.12884676 0.07299925 -0.09634155
000060 62 db 55 3b 32 7e 9a bd 03 d2 57 3d 58 fa 80 3c
       0.0032631983 -0.07543601 0.052690517 0.015744373
000070 44 aa c4 3d ad 86 86 3c b9 3a 4e 3d 36 09 72 bd
       0.09602788 0.01642164 0.05034897 -0.059090815
000080 1f bb 1c be 1d b8 3f 3c a6 cb 11 3d 4f 76 50 bd
       -0.15305756 0.011701611 0.035594605 -0.050894078
000090 f9 31 04 be 2e b1 c5 bd a5 c2 00 3e ab a9 34 3d
       -0.12909688 -0.09652935 0.12574251 0.04410712
0000a0 0d 20 5e bb df 39 9e bc 1b 4d 11 3e 41 ae ed bb
       -0.0033893615 -0.019314704 0.1418957 -0.0072534387
0000b0 b0 4b 67 bd fc 83 99 bd 44 03 9b 3d 7e 34 b2 bd
       -0.056468666 -0.07495877 0.07568982 -0.08701418
0000c0 9b f3 eb bd 0a 55 ad bd ab a1 d3 3c f3 0d 95 bc
       -0.115210734 -0.084634855 0.025833925 -0.018195128
0000d0 f6 cf 18 bd 58 28 9f 3d 5b 23 70 3a d4 cf 98 3d
       -0.037307702 0.07771367 0.0009160542 0.07461515
0000e0 c2 2a 87 bd d9 5e 9f bc ac 6d f6 3c 0a ba e6 bd
       -0.06599952 -0.019454407 0.030081593 -0.11265953
0000f0 51 a9 20 3e b0 e4 9c 3d ef ea 93 be 4f 34 9c bd
       0.15689589 0.07660806 -0.28890178 -0.076271646

layers.4.weight f4 [64, 64]
000000 fb d6 87 3b cd 86 d3 3d 2e 86 80 3d d9 46 58 be
       0.0041455007 0.103284456 0.06275593 -0.21120776
000010 63 6f d7 3d b5 32 0b 3d b5 62 8b be 0d d3 7c bc
       0.10519292 0.033983905 -0.27223745 -0.015431178
000020 8e 29 15 be ef 0b 5d 3d 7d 7e 13 bd 18 cf 00 3f
       -0.14566633 0.05396646 -0.0360093 0.50316
000030 c4 57 1b be ec c6 d1 3d b5 ea 11 be 9d 1b de 3d
       -0.15170199 0.102430195 -0.1424969 0.108451106
000040 d0 6a 7d bd 51 03 08 be 99 2b 9d 3d 10 ce db bd
       -0.061869442 -0.13282515 0.07674331 -0.10732663
000050 bd 7b e0 bd 80 7c 67 be cd f2 90 3e c5 7f d5 3e
       -0.10961101 -0.22606087 0.28310242 0.41699043
000060 a8 df e6 3d 80 dc fd bc 4a eb 48 3d e6 4d b9 bd
       0.11273128 -0.030988932 0.049052514 -0.09048061
000070 64 ec f1 bd de 21 ca bd 36 12 29 be 90 f9 b7 3d
       -0.11812666 -0.09869741 -0.16510853 0.08983147
000080 1a 5c 8e be 24 38 46 be 03 fb f1 bd 5a 92 74 be
       -0.27804643 -0.19357353 -0.11815455 -0.23883954
000090 ba 74 0f 3e 61 6c 22 be 68 f4 af bd 5a f0 6b 3e
       0.14009371 -0.15861656 -0.08591539 0.23040906
0000a0 13 e3 49 3e 3a 3f cd bb b3 18 2f bb c3 fd 87 be
       0.19715528 -0.0062636407 -0.0026717603 -0.26560792
0000b0 d9 66 ff 3d 33 e0 95 bc b6 1f b7 bd 7c ec 8b 3e
       0.124707885 -0.018295383 -0.08941595 0.2732886
0000c0 44 e2 2b be 2d 6f bd bd 60 5f 00 3e bd e3 54 3e
       -0.16785532 -0.09249721 0.12536383 0.2079
0000d0 32 31 bc 3d 48 12 5b bd 60 d5 a8 3d ed 3c fa 3c
       0.09189071 -0.05348423 0.08243823 0.03054663
0000e0 07 9e 90 bb 18 7d ab bc 1c 40 35 3e 58 97 bb 3d
       -0.0044133696 -0.020933673 0.17700237 0.09159726
0000f0 fc 49 b8 3d 78 08 c4 3d a8 cd c0 3d 70 53 69 3d
       0.089984864 0.09571928 0.09414226 0.056964338
000100 80 88 30 be 2d 74 ec bd c4 ee fe 3d c2 01 6f 3d
       -0.1723957 -0.11545596 0.12447885 0.058351286
000110 12 74 6a 3e 93 70 37 3f f0 da aa 3e aa 27 dc be
       0.2289584 0.7165615 0.3337016 -0.4299901
000120 b0 13 63 bd 1d de cf 3d d5 79 ab bd 89 1b 82 3e
       -0.055438697 0.101497866 -0.08372847 0.25411633
000130 9e b9 50 3d f5 df 6e 3e 68 83 0c bc 4e 81 1b bc
       0.05095827 0.2332762 -0.008576252 -0.009491278
000140 c1 6b 3d bd 43 67 63 3c 9e e4 2b 3d a3 a1 46 3e
       -0.04624534 0.0138796 0.041966073 0.19397597
000150 f1 8d 27 be 9a b7 28 be b6 71 77 3d 0d db c1 3d
       -0.1636274 -0.16476288 0.060411178 0.09465609
000160 84 ca 22 3e 1a bb 91 be 8d 9a 09 bd d0 9e 53 3d
       0.15897566 -0.2846306 -0.033594657 0.051665127
000170 2f 35 f5 3c 1d fe 39 be af fa 11 3d 83 4a 55 3c
       0.029932586 -0.18163343 0.03563946 0.013018253
000180 ed 02 24 be 95 26 d5 3c 19 7c 55 3e 35 eb ea bd
       -0.16016741 0.026019374 0.20848121 -0.114706434
000190 d9 b9 c9 bd e8 07 80 be 3b 79 a3 3d 69 01 d0 3d
       -0.09849901 -0.25006032 0.07982107 0.10156519
0001a0 cd 72 60 3e 3d fa ed 3c 53 8a 3e 3c 2c ad dd bc
       0.21918793 0.029049987 0.011629659 -0.027060114
0001b0 f6 30 a5 3e 89 eb a2 3d e8 b0 0c be e1 74 22 3d
       0.32263917 0.07955081 -0.1373936 0.039662246
0001c0 d4 b1 fb bd b6 bc 46 3d b2 9c 7c 3e 72 ff 08 3e
       -0.122897774 0.048519813 0.2466915 0.13378695
0001d0 42 dc e9 bc bd 36 a0 3e da a0 e3 bc 9b 65 a3 3d
       -0.02854741 0.31291762 -0.027786661 0.07978364
0001e0 c2 ee c1 bd 7d 86 c4 3e b8 45 9d 3d d4 a6 18 3e
       -0.094693676 0.38383856 0.076793134 0.1490739
0001f0 07 fc 08 3d a8 5f 49 3d b3 3f 2f 3e 50 ec 86 be
       0.033443477 0.04916349 0.17114143 -0.26352167
000200 0f 4a 32 3e 1d cb ad 3d 2e de a2 3d 01 cb 32 bd
       0.17411064 0.084860064 0.07952534 -0.04365063
000210 94 c4 cb 3d a9 45 da 3d c1 6e 58 be f6 82 96 3d
       0.09949604 0.10657818 -0.21136 0.073491976
000220 2d 44 9f be c8 0b 69 be bc f7 af 3d e8 17 73 be
       -0.31106701 -0.227584 0.085921735 -0.23739588
000230 ac 25 1f be bb 2c 13 3e 99 54 ea bc df 50 61 bc
       -0.15541714 0.14372532 -0.028604792 -0.013752191
000240 4a b3 00 bf 43 5f 96 bc 7d a7 72 3d 13 15 21 3d
       -0.50273573 -0.018355971 0.05924176 0.03932674
000250 ef 25 39 3e 2f 15 ba 3e b0 8a 3d 3d bd fe 02 3e
       0.18080877 0.36344287 0.04627484 0.12792487
000260 c6 cf 76 bd a2 a1 a4 3e ad 5c cd bd ff c3 9f 3c
       -0.060256742 0.32154566 -0.10027442 0.019502638
000270 39 5c 9f be 7e 31 bb bd 79 dc 8e be c7 77 4f bc
       -0.31125048 -0.09140299 -0.27902582 -0.0126628345
000280 8b 76 8a bd 94 87 cc bd b4 19 a8 bd f3 cb a8 bd
       -0.067608915 -0.09986797 -0.082080275 -0.08242025
000290 c4 da 5e 3e d8 62 0c 3d e6 1b 6c be 12 c7 b1 3e
       0.2176314 0.034273952 -0.23057517 0.3472219
0002a0 34 00 7d 3e bd 9a d2 bd 99 d0 56 bd e5 a7 3f 3c
       0.24707109 -0.1028342 -0.052445028 0.011697744
0002b0 32 17 5b bf cc 83 17 3d 12 47 a9 3d fd 1b 8d 3d
       -0.8558227 0.036990926 0.08265509 0.06890104
0002c0 46 3a 74 be 94 f4 4a be 69 16 0e be 1a ca ca 3e
       -0.23850355 -0.19819862 -0.13875736 0.39607316
0002d0 2d ad 4e 3e 9b 72 6b be 95 76 55 be 85 91 c8 bd
       0.20183249 -0.22992937 -0.20846017 -0.09793381
0002e0 af 47 bc 3c 58 16 33 bd f4 4d 1a 3e 54 b5 58 be
       0.0229834 -0.04372248 0.150688 -0.21162921
0002f0 55 f1 00 3e e9 d1 d5 3d 6f 5c 68 be f2 de b0 3e
       0.12592061 0.10440428 -0.2269151 0.34545094
000300 ce 40 14 be 3b a7 9f bd df 9b a8 3e da e8 94 bd
       -0.14477846 -0.077955686 0.3293142 -0.072709754
000310 5e 94 8f 3e b4 49 c7 3d da 69 8a 3e 7d 0d 8b bd
       0.28042883 0.09730855 0.27033883 -0.06789682
000320 78 55 10 3f 1b dc 97 3d 7e 4e 13 be c8 13 4f 3e
       0.56380415 0.07415029 -0.14385411 0.2022239
000330 01 13 e7 3d 9c 54 85 be 3a 32 4c 3d 5b 4c 4c bd
       0.112829216 -0.26041114 0.049852587 -0.049877506
000340 f2 e4 16 bf ff 08 ec 3b 79 49 27 be f2 9c aa 3d
       -0.5894309 0.007203221 -0.16336621 0.08330716
000350 13 01 d8 be ca 39 33 be f6 93 09 3e 72 ff 38 3e
       -0.4218832 -0.17502514 0.13435349 0.18066195
000360 15 a8 a3 bd 0c b6 d8 3d df d4 18 3e 06 a4 74 bd
       -0.079910435 0.10581598 0.14924954 -0.059726737
000370 27 58 a2 bd 6c 0b 76 3c 16 83 4d 3e 3d 66 21 be
       -0.0792697 0.015017372 0.20069537 -0.15761657
000380 62 69 0e be 33 11 8f 3e ca 11 99 bd 93 24 b9 3d
       -0.13907388 0.2794281 -0.07474096 0.09040179
000390 a5 dc 82 3e 21 34 5a 3d 71 88 dc 3d 0b 9c e0 bd
       0.25558963 0.05327237 0.10768212 -0.10967263
0003a0 b7 1f 1d bd 35 6e 2f 3e 09 80 5c bd 80 28 25 bf
       -0.038360324 0.17131884 -0.05383304 -0.64514923
0003b0 e7 8b 03 3e bf f4 db bc 63 0f 91 3e 1f aa b0 3e
       0.12846337 -0.026850102 0.28332052 0.34504792
0003c0 f3 81 bb 3e 55 d2 1f be fd dd 91 3c 23 7e d6 bd
       0.3662258 -0.15607579 0.017806048 -0.104732774
0003d0 90 88 e2 3d de 95 4d 3d da 20 b1 3d 2d 65 0c be
       0.110612035 0.050191753 0.08648844 -0.1371047
0003e0 07 57 2a 3e 20 54 24 3e 49 3e 27 3f b4 1a 13 3e
       0.16634761 0.16047716 0.65329415 0.14365655
0003f0 85 e7 3e be ce e0 13 be 7b ee 27 3f 06 37 86 3d
       -0.18643005 -0.14441225 0.6559827 0.06553464

layers.4.bias f4 [64]
000000 16 96 db 3d 35 9d 3f 3e 9e d9 04 be 09 6a e4 3c
       0.10721986 0.18712313 -0.1297364 0.027882593
000010 37 1b 31 3e 0a 99 ba 3d 0e 60 0c be 85 59 8a bc
       0.17295538 0.09111221 -0.13708517 -0.01688839
000020 bc 07 d7 3d ec b6 dd be f2 a6 8f 3b 85 b8 e8 3e
       0.10499522 -0.4330362 0.004383915 0.45453277
000030 b2 89 2b be b8 fa d0 be b0 ea a0 bd 1f 9f 70 3e
       -0.16751745 -0.40816283 -0.07857263 0.234982
000040 b4 44 07 bd eb 3e 5e 3e 94 07 81 3d 2b d0 12 be
       -0.033024505 0.21703689 0.063002735 -0.14337222
000050 07 91 43 be ae 23 c5 bd ac eb 0f bf bd 7b e6 bd
       -0.19098292 -0.09625946 -0.5621898 -0.1125407
000060 7c 91 27 3e 43 01 8f 3e 4c 9c c9 bd 0e 55 78 3c
       0.16364092 0.2793065 -0.098442644 0.015156997
000070 47 02 0f 3d d5 d1 e1 bd 47 ed 1f be 70 8a 2e bd
       0.03491428 -0.110263504 -0.15617858 -0.042612493
000080 a1 8e 50 be 65 35 a3 bb ff f3 a3 3c 5b 74 61 bd
       -0.20366909 -0.0049807304 0.020013807 -0.055042606
000090 d1 29 67 bd 07 9a 49 3e d1 66 ea be a9 7f 8c 3d
       -0.056436364 0.19687663 -0.45781568 0.06860287
0000a0 fc e7 29 be 79 06 0c be 65 a0 f5 3d a1 6b 35 be
       -0.16592401 -0.13674344 0.119934835 -0.17716838
0000b0 49 8d b7 3d 3c 11 6a bd 6b b9 60 be 3f f0 36 3e
       0.08962495 -0.057145342 -0.21945731 0.17865084
0000c0 a9 1a db 3d b8 20 95 bd 53 5d b8 bd 84 98 2a bd
       0.106984444 -0.07281631 -0.09002175 -0.041649356
0000d0 c7 49 32 3f 90 6d 77 be 2a d1 91 be 8c cd 42 3e
       0.69643825 -0.24162889 -0.28479892 0.19023722
0000e0 c3 b8 b9 3c f2 84 76 3b 2b a5 93 3c 99 a5 16 3e
       0.022671109 0.0037615863 0.018023094 0.14711608
0000f0 2d 86 89 bc 9f 9e 72 3e 0d 5c 23 be 5d 8b bd bc
       -0.016787613 0.23693322 -0.15953083 -0.023137743

layers.5.weight f4 [2, 64]
000000 34 8c 34 be c8 23 c4 be 59 df 9e 3d 47 68 5c 3e
       -0.17631608 -0.3830855 0.07757444 0.21524154
000010 68 00 2c 3e e5 7a 14 3e 3c 6f 56 be 6f 86 9b 3e
       0.1679703 0.14500006 -0.2094087 0.30376002
000020 51 e0 17 be 8d 6e 01 be 3d f9 09 3e dd d3 10 3f
       -0.14831664 -0.12639828 0.13473983 0.5657328
000030 07 f6 30 3e ce d2 7c 3e de 29 1d 3e be f2 2b bd
       0.17281352 0.2468979 0.15348002 -0.041979544
000040 66 b4 b3 bd 8d f3 41 3e d4 db 3f be 64 07 05 3e
       -0.08774643 0.18940563 -0.18736202 0.129911
000050 b2 c6 14 3e 40 f9 5a 3e 4a 2a 76 bc ad 86 84 bd
       0.14528921 0.21384144 -0.015024731 -0.06471
000060 05 52 f9 bd b3 58 8b be 41 a8 83 3e be ba 11 be
       -0.12173847 -0.2721611 0.25714305 -0.14231393
000070 04 df d5 bd e8 17 40 3e d6 04 7b 3e 23 68 22 be
       -0.104429275 0.1875912 0.24513564 -0.15860038
000080 c0 a1 ee 3d 5a 2c 0c 3e 1e a5 11 3e 1d a4 cc be
       0.11651945 0.13688794 0.14223143 -0.39968958
000090 64 73 54 3e b5 c3 c2 be 01 d3 24 be 4f ab 47 be
       0.20747143 -0.38039938 -0.16096117 -0.19498943
0000a0 35 48 f7 3d db 72 09 3e d5 28 c5 bd af 2e 28 3e
       0.12074319 0.1342272 -0.09626929 0.16424058
0000b0 ed d6 07 3e be cd eb 3d 86 96 d3 bd 91 7a 4f be
       0.13265581 0.115138516 -0.103314444 -0.20261599
0000c0 59 e2 00 be 12 ef c1 3d 7c 39 1a 3e 18 86 3e be
       -0.12586345 0.09469427 0.15060991 -0.1860584
0000d0 47 ad a7 3e 10 f0 0c be 76 2d a4 bd 61 89 a6 bd
       0.32749388 -0.13763452 -0.080164835 -0.08131672
0000e0 52 9c 0c 3d 6a 7d 96 be 16 81 36 be 32 9d dc bd
       0.034328766 -0.29392558 -0.1782268 -0.1077217
0000f0 1a 59 80 be 45 91 89 be c8 ec 03 3d 7c 04 23 be
       -0.2506798 -0.26868644 0.032208234 -0.1591968
000100 ff c8 3c 3e 1b ed 19 bf 8e 3e 52 3e 63 c9 a9 bc
       0.18436049 -0.6012742 0.20531675 -0.020725911
000110 ce a3 08 3e ff 8f ef bd 6b dc b6 3d 52 81 2d be
       0.13343737 -0.11697387 0.0892876 -0.16943863
000120 05 d5 14 be f6 00 58 be b9 9d b2 bd 18 5f 5b 3d
       -0.14534386 -0.21094117 -0.087214895 0.053557485
000130 ea a1 5a be ca ba b2 be 79 96 20 3e df 63 ba be
       -0.21350828 -0.34908134 0.15682401 -0.3640432
000140 85 6b 0d bf 1c 69 88 3d 32 6e b9 3d b6 ce 0f be
       -0.55242187 0.06660673 0.09054221 -0.14043698
000150 ff f1 b0 be 19 52 c3 be 12 5c 44 bf 8c 3f 94 bd
       -0.34559628 -0.38148573 -0.7670299 -0.07238683
000160 92 8b 39 bd e7 7c ce bd fe ec 5d 3d ff 68 02 3e
       -0.04529912 -0.10082417 0.05418109 0.12735365
000170 89 29 c8 3e 2e 7e 7a be 4e 03 59 be 8b ca b1 bd
       0.3909419 -0.24462196 -0.21192667 -0.0868121
000180 35 c4 1a 3e 76 ee c5 bd 45 45 e9 3e 21 8c 8f be
       0.1511391 -0.096646234 0.4556066 -0.28036597
000190 96 e2 9e be 12 d0 d9 3d b1 f5 80 be 60 a8 c0 be
       -0.31032246 0.106353894 -0.25187448 -0.3762846
0001a0 2e b3 4d 3e 95 04 a7 3d 9b 62 88 bd 57 42 ba 3c
       0.20087883 0.08155171 -0.066594325 0.022736711
0001b0 49 1c 30 be c6 c8 28 3e d8 1f 00 3f 7c 7c 46 be
       -0.1719829 0.16482839 0.5004859 -0.19383425
0001c0 de 22 96 be 60 70 99 bd 8f 71 c2 3d b6 4e 14 be
       -0.29323477 -0.07492137 0.09494316 -0.14483151
0001d0 5a c8 5d 3c 3c de 58 3d 7d 6a b5 be be 63 b3 be
       0.013536537 0.052946314 -0.35432807 -0.35037035
0001e0 5a 5b cb be e8 d4 c3 3d 97 5c 1d 3f ec 85 1b be
       -0.39718133 0.09562093 0.61469406 -0.15187806
0001f0 1e a0 49 3e 41 77 a9 3e 78 1c 41 3f af 5d b2 bd
       0.19689986 0.33098796 0.75434065 -0.08709275

layers.5.bias f4 [2]
000000 68 f7 bb 3d e6 ee c9 3d
       0.09178048 0.098600194
